onpolicy/actor.pt (torch, 178293 bytes, 22 tensors)

base.feature_norm.weight f4 [115]
000000 74 59 82 3f 6e a3 7d 3f 66 9b 80 3f 70 c8 7f 3f
       1.0183549 0.990775 1.0047424 0.9991522
000010 8f 03 7f 3f 79 d6 80 3f 7c 71 7f 3f 8d 09 80 3f
       0.99614805 1.0065452 0.9978254 1.0002915
000020 d4 a7 7a 3f 58 5e 80 3f e0 e0 7e 3f 1b 52 80 3f
       0.97912335 1.0028791 0.9956188 1.0025057
000030 1d 83 7d 3f 4a e0 7d 3f 55 28 7f 3f 1d 01 7b 3f
       0.9902819 0.9917036 0.99670917 0.98048574
000040 0d b6 7e 3f 2e ce 76 3f cd 86 80 3f 56 e0 7e 3f
       0.9949654 0.96408355 1.0041138 0.9956106
000050 ae f4 7a 3f ff 12 80 3f ed da 7f 3f 8b 59 78 3f
       0.980296 1.0005797 0.9994343 0.9701163
000060 94 59 80 3f 94 da 81 3f c8 cc 78 3f ba 35 7b 3f
       1.0027337 1.014483 0.9718747 0.98128855
000070 95 c7 7f 3f 05 ed 7b 3f 4b f2 78 3f ac 28 80 3f
       0.99913913 0.9840854 0.9724471 1.0012412
000080 1b 7f 81 3f d0 b3 7f 3f 5f 69 82 3f a9 86 7e 3f
       1.0116915 0.9988375 1.0188407 0.99424225
000090 05 25 7d 3f 81 ea 7e 3f c0 b9 7e 3f 80 6e 7c 3f
       0.9888461 0.99576575 0.9950218 0.9860611
0000a0 dd 28 79 3f 57 ef 7c 3f fd 61 7c 3f 70 0c 80 3f
       0.9732798 0.98802704 0.9858702 1.0003796
0000b0 62 bd 89 3f 03 bb 7b 3f 85 62 7e 3f 82 4b 7e 3f
       1.076092 0.9833223 0.9936908 0.99333966
0000c0 35 87 7f 3f 45 d6 7d 3f 58 e0 80 3f 83 41 7b 3f
       0.99815685 0.99155074 1.0068464 0.9814684
0000d0 11 22 7d 3f e5 03 81 3f c0 10 80 3f 46 0a 81 3f
       0.98880106 1.0079314 1.0005112 1.008126
0000e0 69 ca 7f 3f 95 9f 7b 3f 24 44 7c 3f d4 c9 80 3f
       0.9991823 0.9829038 0.98541474 1.0061593
0000f0 d4 7b 80 3f 16 d2 79 3f b9 99 76 3f d9 1a 80 3f
       1.0037789 0.9758619 0.9632831 1.0008193
000100 de 47 7e 3f ee 8f 7d 3f 97 25 7e 3f 6b 42 7d 3f
       0.9932841 0.99047744 0.9927611 0.9892947
000110 5c 18 7f 3f 5f 67 7d 3f d6 78 7b 3f 6b 50 7b 3f
       0.99646544 0.98985857 0.98231256 0.98169583
000120 b2 be 7e 3f c0 3c 80 3f 6d b6 7c 3f f4 a5 7f 3f
       0.9950973 1.001854 0.9871586 0.998626
000130 b1 19 7e 3f 69 73 78 3f 98 75 7f 3f 24 4f 7f 3f
       0.9925795 0.970511 0.9978881 0.99730134
000140 6f 39 7e 3f 76 fa 7f 3f aa a5 7f 3f 92 23 7b 3f
       0.99306387 0.9999155 0.9986216 0.9810115
000150 22 9a 7d 3f d7 1b 7d 3f 6a b0 7c 3f 68 9a 7a 3f
       0.99063313 0.98870605 0.98706686 0.97891855
000160 90 25 7c 3f 0d ea 7f 3f 77 c7 82 3f b1 6f 7e 3f
       0.98494816 0.9996651 1.0217122 0.9938918
000170 b3 2c 81 3f bb 1e 85 3f 03 a4 80 3f f5 06 83 3f
       1.0091766 1.0400003 1.0050052 1.0236498
000180 d5 d6 80 3f 69 59 82 3f 10 c9 82 3f f6 90 85 3f
       1.0065562 1.0183536 1.021761 1.0434864
000190 58 3c 80 3f 44 62 7f 3f 36 63 7b 3f 53 95 7e 3f
       1.0018415 0.99759316 0.9819826 0.994466
0001a0 37 7e 7f 3f 9d b8 7f 3f bb d0 7b 3f 5c 22 7f 3f
       0.99801964 0.9989107 0.9836537 0.99661803
0001b0 67 29 7b 3f 3c 8a 7e 3f 44 96 7d 3f 4b 6b 7f 3f
       0.9811005 0.9942968 0.9905741 0.9977309
0001c0 f1 41 7c 3f 17 65 7b 3f e6 e2 7b 3f
       0.9853812 0.98201126 0.98393095

base.feature_norm.bias f4 [115]
000000 74 87 a5 3c f2 f0 f0 3b 9e 24 dc ba 26 d1 d4 bb
       0.02020619 0.0073529417 -0.0016795581 -0.006494659
000010 91 93 4a 39 85 53 00 bc 1b d8 a0 3b 7b 93 70 bb
       0.00019319194 -0.007832413 0.0049085743 -0.0036709
000020 72 33 5c bc 7c 6a 28 bc 8c cb b3 ba 51 6d a8 3c
       -0.01344 -0.010279294 -0.0013717278 0.020559939
000030 4b df b0 3c 7d 70 b2 3c c0 ed 4c 3c aa 7a e1 3c
       0.02159085 0.021782154 0.012507856 0.027524311
000040 2b d5 ad bc 28 b5 f9 3c 0c 05 36 bb d7 32 c8 3c
       -0.02121981 0.03048189 -0.0027774004 0.024438305
000050 6d f7 9c 3c 97 27 37 3c eb e6 15 bc 28 78 c2 bc
       0.01916095 0.011178873 -0.009149293 -0.023738936
000060 38 d7 2f bc 48 4d 8c bb 4f 8a 87 bc 5c 89 09 bb
       -0.0107324645 -0.0042816736 -0.016545443 -0.0020986414
000070 5f 20 0a 3c 5b fe 95 bc c5 e7 71 3b 3a 13 a6 bb
       0.008430569 -0.018309763 0.0036911827 -0.00506821
000080 2b c7 81 3c 64 5f 36 39 ff ab ad bc 6b 40 7e 3c
       0.015842041 0.00017392408 -0.021200178 0.015518288
000090 95 48 ad 3b 9d f0 4b 3c 9c 66 18 bc ca ca 81 3b
       0.0052881935 0.012447503 -0.009301808 0.003960942
0000a0 2a 40 72 3c 4c 40 80 3c ec 4f d2 3b 7a 57 88 3a
       0.014785806 0.01565566 0.006418219 0.0010402047
0000b0 7c 6f ac 3c e0 35 55 bb b6 f6 36 3c 14 1a 46 bb
       0.021049254 -0.0032533333 0.011167219 -0.0030227946
0000c0 b9 d3 97 3a 85 17 f0 3b 62 86 ed 3a d6 18 1e 3c
       0.0011583484 0.0073270225 0.0018121714 0.009649476
0000d0 55 2b a3 3c 20 e0 dc bc db 10 f4 3c 9f b0 36 3c
       0.019918123 -0.02696234 0.029793194 0.011150508
0000e0 9a 09 3a 3b 42 30 96 bc 9b 1f 58 bb 71 81 8f 3c
       0.002838707 -0.018333558 -0.0032977823 0.017517777
0000f0 fe 80 16 3c 0d 44 55 3b 10 62 e7 3c 9f 61 9c ba
       0.009186028 0.0032541782 0.028245002 -0.0011930949
000100 7c 05 a8 3a 61 5e a6 ba 94 e1 e4 3a 48 63 6e 3c
       0.0012819017 -0.0012692922 0.0017462247 0.014550038
000110 dd 31 27 3b b3 cd 11 bc ac 90 97 3c 12 b7 85 3c
       0.0025511899 -0.00889914 0.018501602 0.016322646
000120 23 56 1f 3c 0a cc c5 ba 03 c2 4e bb c5 22 43 3c
       0.009725126 -0.0015090716 -0.0031548745 0.011910145
000130 56 eb c3 3c 19 7f b7 3c 10 69 70 3c e1 de 8d 3c
       0.023915928 0.022399472 0.014673486 0.017318191
000140 87 8d 5a bc 80 1f a2 3c 60 c2 e7 3c 3a cf 1b 3c
       -0.013339407 0.019790411 0.028290927 0.009509856
000150 b5 d6 4e bc 93 ae 42 3c 0d 84 9e bc c1 4e 3a 3c
       -0.012624432 0.011882442 -0.019350076 0.011371315
000160 aa 44 c3 bc ac c0 17 bc 32 aa 9d bb 78 a8 06 bb
       -0.023836453 -0.009262245 -0.0048115486 -0.0020547193
000170 c7 31 b3 3c 6e 6a 09 3b c3 27 8e bc 44 57 26 3b
       0.021874322 0.0020967978 -0.017352944 0.0025381604
000180 98 c8 85 3b e8 5a c5 bb 68 83 43 bc 62 19 63 3b
       0.0040827505 -0.0060227998 -0.011933185 0.003465258
000190 86 77 49 bc 2e 19 57 3b 63 9d d3 bc d8 33 31 bb
       -0.012296563 0.0032821405 -0.025831884 -0.0027038958
0001a0 ce 70 6f 3b eb 87 c1 bb b8 ec 7d bc 96 4a 23 bd
       0.0036535743 -0.0059060953 -0.015498333 -0.039866053
0001b0 29 f4 ed 3a e0 c3 39 bb fa 8b 84 bb 1e 8f 8d 39
       0.001815443 -0.002834551 -0.004045007 0.00027000246
0001c0 39 e4 77 3b 78 9b 59 bc 3f 9b 46 bb
       0.003782524 -0.013281696 -0.0030304936

base.mlp.fc1.0.weight f4 [64, 115]
000000 2a 7d ca 3d fa a2 1a 3e d4 27 06 be a3 ba 92 3d
       0.098871544 0.15101233 -0.1310113 0.071645044
000010 93 fa 77 3d 70 74 56 be d0 93 21 be 75 7d 17 be
       0.0605417 -0.20942855 -0.15779042 -0.14793952
000020 20 41 2b 3e 3d 50 03 bc ea b0 96 3c a9 0e 1d 3e
       0.16724062 -0.008014736 0.018394906 0.15337624
000030 85 40 be 3b 0e ac 19 bd 65 d0 1f be 51 58 0c bd
       0.005806031 -0.0375176 -0.1560684 -0.034263913
000040 6c d8 40 bd 21 69 b9 bd 51 a6 93 3d 3a b5 c1 3d
       -0.047081396 -0.09053255 0.07209457 0.09458394
000050 91 60 56 3d de c8 78 be bc cd 96 3d 71 b0 bb 3d
       0.052338187 -0.24295375 0.073634595 0.09164513
000060 1f 46 ff bd 40 72 9c bd 38 03 b7 3d b5 99 b1 3c
       -0.124645464 -0.07638979 0.08936161 0.021679739
000070 0f bc 42 be 27 db 5c bd aa 21 46 3e 76 63 29 3e
       -0.19017051 -0.053919937 0.1934878 0.16541848
000080 9f 37 11 be 58 d3 9d 3d be cc fe 3d 87 a0 43 bc
       -0.14181374 0.07706326 0.12441395 -0.011940128
000090 37 dd 7f 3d 46 60 4b 3e 47 bd 85 3d 48 26 3f 3e
       0.062466826 0.19860944 0.065302424 0.18666947
0000a0 44 28 a1 bc 52 65 9b bd 6b d5 1a be 87 1a 79 be
       -0.01967252 -0.07587685 -0.15120475 -0.24326526
0000b0 f9 d6 05 3d fe 66 33 3d d7 0c 37 be 5b 49 4a be
       0.032675717 0.043799393 -0.17875992 -0.19754545
0000c0 0e 63 38 bd 1d bb bd bc ce fd 17 be 8f 27 0a 3e
       -0.04501634 -0.023160512 -0.14842913 0.13491653
0000d0 64 47 c3 3b 3a 6d ff 3c bf 31 06 3e 20 48 15 3e
       0.005959438 0.031180013 0.13104914 0.14578295
0000e0 89 c3 e0 3d a0 74 50 bd 5a e5 ab 3d 9e 06 1b be
       0.10974795 -0.050892472 0.08393355 -0.15139243
0000f0 69 df 98 be dd dc c4 3a 79 bf 59 bd e3 af 20 be
       -0.29857948 0.0015019436 -0.05316112 -0.15692095
000100 60 9f a7 3e 15 9f db 3d c5 07 55 3e 80 23 12 bd
       0.3273878 0.10723702 0.20803745 -0.035678387
000110 07 e6 51 be 93 c3 c1 bb 6d 07 23 be 2b 01 51 3e
       -0.20497905 -0.005913207 -0.15920801 0.20410602
000120 11 b4 b8 bb fd 91 2e bd 92 59 13 be 2d bf 65 3d
       -0.0056367 -0.042619694 -0.14389637 0.056090523
000130 a0 0d 53 bd c3 0d dc 3d 13 b4 bc 3d bc 54 31 3e
       -0.051526666 0.10744812 0.09214034 0.1731748
000140 ad 8d a2 bd 74 f3 14 3d 8d 8e f5 3d e6 67 90 3e
       -0.07937179 0.036364987 0.1199008 0.28204268
000150 2b e1 16 be 17 78 74 be 11 1a d5 3c 93 60 c6 bd
       -0.14734332 -0.23873936 0.026013406 -0.09686389
000160 67 5c df 3c 1a d0 20 bc 42 bf 8e bd 23 64 01 3e
       0.02726574 -0.00981524 -0.06970073 0.12635855
000170 f2 ff bf bb f9 e2 cc bd 25 73 2a 3c a3 04 06 3e
       -0.0058593685 -0.10004229 0.010403429 0.13087706
000180 f1 95 01 ba da bd 16 3d f9 33 87 be 3b 7d f0 bd
       -0.00049433025 0.03680215 -0.2640684 -0.11742636
000190 f8 e5 73 3b d0 41 90 3e 6d 19 2e 3e 63 48 d9 bd
       0.003721593 0.2817521 0.17001887 -0.1060951
0001a0 91 92 15 3d 92 2b 74 bd 6b eb 41 3d 8d e1 2b 3e
       0.03651673 -0.059611864 0.047343653 0.1678526
0001b0 9e b3 8c be 4e 84 7e 3e 1e 2d 5a 3d 58 2e 94 bc
       -0.27480787 0.24855158 0.053265683 -0.018088505
0001c0 5d c5 ed 3d 8a ad 30 3d 5d 5f 81 bd b9 e7 6e bc
       0.1160991 0.04313425 -0.06317017 -0.014581614
0001d0 1d d9 72 be b4 b0 4b be b2 38 10 bd 2e 61 8c 3e
       -0.23715635 -0.19891626 -0.03521032 0.27417892
0001e0 4a 26 16 be 22 57 21 3e 04 36 38 be 7e e8 d2 ba
       -0.14663044 0.15755895 -0.17989355 -0.0016091017
0001f0 13 c4 0d be 9e 62 30 bd a2 80 af bd a4 7a 90 3d
       -0.13844328 -0.0430628 -0.08569457 0.07054642
000200 0c a3 b6 bd 13 a5 3f be 8e 32 24 3d ff 77 65 3e
       -0.089178175 -0.18715315 0.040087275 0.22409056
000210 26 fa 46 bc 1e cc 5e be 20 f5 ea 3b 11 f7 e4 3d
       -0.012144601 -0.21757552 0.0071703345 0.11179937
000220 e6 a6 00 3e 49 37 02 3d 11 fa cd bd ba 2e d6 bd
       0.12563667 0.031791005 -0.10057462 -0.10458131
000230 35 ad bf bd a4 dd 77 3d 17 8e 4d bc 96 da 14 3d
       -0.093592085 0.060514107 -0.012546084 0.036341272
000240 d2 3d 69 be d7 a7 0b be cd 77 8c bd 9b 6e e5 3d
       -0.22777489 -0.13638245 -0.06858788 0.11202737
000250 2a 81 05 3e be ef c5 bd ea 91 2b 3e 1b 0d b8 3b
       0.13037553 -0.09664868 0.1675488 0.0056167967
000260 4b 68 33 bd 6a 25 15 bd 72 c4 c9 bd c9 58 1a 3e
       -0.043800633 -0.036412634 -0.09851922 0.15072931
000270 a9 22 be bd d4 97 d7 bd e2 9f c3 3c ba 2c 37 bd
       -0.09283955 -0.10527006 0.023879949 -0.04472039
000280 86 0e df bd 7d e4 ce bd 5e 6c 76 bc 25 f7 cb 3d
       -0.10891442 -0.101021744 -0.015040485 0.099592485
000290 db 37 11 3d 39 88 bc bd 5f e0 d2 3d 4a 1e 71 be
       0.03545366 -0.0920567 0.10296702 -0.2354671
0002a0 ce 5d 56 bd a5 d7 51 bd dc fe 98 bd 36 df d5 3d
       -0.052335553 -0.051231045 -0.074704856 0.10442965
0002b0 3e 55 bd bd 22 be 45 3e 9b 6d 66 bd 5d 1b 23 be
       -0.09244774 0.19310811 -0.05625687 -0.15928407
0002c0 fe 54 c8 bd 82 43 3d bd e1 71 e4 3d 69 fa 8e bc
       -0.09781836 -0.04620696 0.11154533 -0.01745339
0002d0 28 41 a4 be 12 8f 98 be b1 84 41 3d 8c b4 ce bd
       -0.3208096 -0.29796654 0.047245685 -0.1009303
0002e0 05 b3 12 3e 03 da 87 bc 8f b3 25 3c d8 fe 9b 3e
       0.14326103 -0.016583448 0.010113611 0.30467868
0002f0 7c 7d 9c bd b5 92 a2 3d 86 e3 86 bd 78 b2 13 be
       -0.07641122 0.079381384 -0.065863654 -0.14423549
000300 81 a8 2b 3e 0a ea 19 3e dc 85 96 be 08 41 be 3c
       0.16763498 0.15030685 -0.29399002 0.023224369
000310 6f 24 a0 3d 1d 60 c6 3d 3d ba 1f 3c 0b c4 3b be
       0.07819449 0.09686301 0.0097489925 -0.18336503
000320 99 af 3e ba fc 5a 8d bd 4c 26 ca bc 51 f3 8b bd
       -0.0007274091 -0.069021195 -0.024676464 -0.06833518
000330 38 70 6e be 61 74 9a bd a5 ba 21 be 6c ee cc be
       -0.23284996 -0.07541729 -0.15793855 -0.4002565
000340 a1 ed bf bd 7e e8 1e 3e 11 cc 5e bd fd 74 c1 3d
       -0.09371496 0.15518376 -0.05439383 0.09446142
000350 c2 4c 29 3e 07 9d 8a 3c 1d 0b 7e be ef 0e c4 bc
       0.16533187 0.01692058 -0.24808927 -0.023932902
000360 76 d0 ca bd 85 cc fd 3d b0 c8 89 bc b6 88 4f be
       -0.09903042 0.12392525 -0.016819328 -0.20266995
000370 32 af 9c 3d 0a 88 20 be 0e 09 9d 3d 00 df 0a 3d
       0.07650603 -0.15676895 0.07667743 0.033904076
000380 a2 29 1d 3d c1 67 24 be 2d 2b 1d bd de 70 65 3d
       0.038369782 -0.16055204 -0.038371254 0.05601584
000390 6e 9d c6 3d c1 2b 6a bd b1 3d 2c 3e 22 6a 86 bc
       0.09697996 -0.057170633 0.16820408 -0.01640803
0003a0 64 93 e4 3d b4 05 17 3c 63 65 ac 3d 48 cd d2 bc
       0.11160925 0.009217668 0.084177755 -0.025732651
0003b0 5f af 68 3d 3f 88 fa bd 1f b5 87 3e 7e a1 57 be
       0.056807872 -0.12233018 0.26505372 -0.21057698
0003c0 75 1d bf bc 59 11 3c bd 82 1f 88 3d 8c c2 a4 3d
       -0.023329476 -0.04591498 0.06646635 0.08044919
0003d0 85 b5 42 be e1 51 e6 3c 04 e5 97 bd e8 df 11 3e
       -0.19014557 0.028115215 -0.07416728 0.1424557
0003e0 1d e5 fc 3b 4a 56 30 3e 7b 66 10 3e 45 c6 d3 be
       0.007717742 0.17220417 0.14101593 -0.41362205
0003f0 8b bc db 3d e8 10 8a 3d 21 fc 22 bb b4 78 74 bd
       0.10729321 0.06741506 -0.0024869519 -0.059685424

base.mlp.fc1.0.bias f4 [64]
000000 55 85 e4 ba 8c a1 35 bb 69 9c a0 bb 24 b3 4f 3d
       -0.0017434756 -0.0027714698 -0.004901458 0.05070795
000010 9a 71 63 bb 1c c5 be 3c c1 0d ae bc de fd 37 3d
       -0.0034705163 0.023287348 -0.021246793 0.04491984
000020 7f c5 d5 bb e8 b9 8f bb 73 25 b0 bb f9 08 a8 3c
       -0.0065237875 -0.0043861754 -0.005375558 0.020512091
000030 9c 22 71 bb 3c 5c a9 bb db 67 d4 bb 3d f0 c7 ba
       -0.003679431 -0.005168466 -0.006482107 -0.0015254092
000040 e8 72 3f 3b 54 66 8a bc 8d e3 e4 ba 38 b1 94 3c
       0.0029212777 -0.016894497 -0.0017462835 0.01815091
000050 2d e1 20 bc ca 3a ed bb c7 ff 34 bb 7f d7 81 bb
       -0.009819311 -0.007239674 -0.0027618275 -0.0039624567
000060 bd 60 76 bb 3f 16 f8 bb d7 5c fd 3b 79 3d ab 3b
       -0.0037594282 -0.0075710113 0.0077320146 0.005225834
000070 f0 67 d7 bb 29 9e 39 bb ce 9c a2 bb 2c eb 09 bc
       -0.0065736696 -0.002832303 -0.00496254 -0.008417886
000080 80 1b 82 bc 80 b4 b7 bb 3f 56 fc ba 03 21 05 bb
       -0.015882254 -0.005606234 -0.0019251778 -0.0020313866
000090 c1 f4 9e bb 11 32 a1 ba 11 e3 1f bc a1 92 b9 3a
       -0.0048509543 -0.0012298246 -0.009758727 0.0014158079
0000a0 36 d6 5e ba 8c 95 67 bc 7c 42 ba 3c 57 23 53 bb
       -0.0008500548 -0.014134776 0.02273678 -0.003221711
0000b0 f1 31 af 3b 52 4f 94 bc 45 30 8c ba 3f 57 51 bc
       0.0053465297 -0.01810423 -0.0010695538 -0.012777149
0000c0 84 21 de bb e5 13 3f bb c8 ba ba bb 07 52 65 3b
       -0.0067788977 -0.0029156145 -0.0056985356 0.003499152
0000d0 40 29 2d bc 56 d5 a9 bb 23 b9 a3 bb a1 75 a4 bb
       -0.010568917 -0.0051829023 -0.0049964353 -0.0050189053
0000e0 b3 44 a0 bc e8 d5 1e ba 23 f4 9e ba ed 37 28 bb
       -0.019564008 -0.0006059096 -0.0012127202 -0.00256681
0000f0 0e 6c ae bb 1b ed 4d 3d 60 58 6e ba 21 0b 8a 3d
       -0.0053229397 0.05027495 -0.00090921484 0.06740404

base.mlp.fc1.2.weight f4 [64]
000000 bc 56 7f 3f 7d bc 7a 3f eb a4 85 3f 88 e6 83 3f
       0.9974172 0.9794386 1.0440954 1.0304728
000010 45 0e 7f 3f 55 6c 7e 3f a3 2c 7d 3f 47 cf 81 3f
       0.9963115 0.9938405 0.98896235 1.0141381
000020 37 6e 80 3f b2 57 7b 3f 4d ec 80 3f eb c7 80 3f
       1.0033635 0.9818069 1.0072113 1.006101
000030 5a 76 84 3f a0 5b 7e 3f 47 b7 7f 3f ab ee 83 3f
       1.0348618 0.9935856 0.99889034 1.0307211
000040 00 fd 7c 3f cf 58 7a 3f 74 f8 82 3f f4 72 80 3f
       0.9882355 0.9779176 1.0232072 1.0035081
000050 58 20 83 3f 2c f3 7e 3f 9f 07 7f 3f d3 cb 82 3f
       1.0244246 0.995898 0.99621004 1.0218452
000060 c8 77 7c 3f de 17 84 3f 15 87 74 3f 19 82 80 3f
       0.9862027 1.0319784 0.9551862 1.0039703
000070 f9 32 7c 3f 61 7b 81 3f ec 3a 7b 3f d0 d5 80 3f
       0.9851528 1.0115777 0.9813678 1.006525
000080 e3 74 80 3f c7 81 83 3f 49 ee 80 3f 3f 06 79 3f
       1.0035671 1.027398 1.0072719 0.97275156
000090 1f 40 7f 3f 06 3d 80 3f 37 0e 7e 3f 3d 14 83 3f
       0.99707216 1.0018623 0.9924044 1.0240551
0000a0 2e 4b 7e 3f 9d 33 7c 3f 56 b1 80 3f e9 8a 7d 3f
       0.99333465 0.98516256 1.0054119 0.99040085
0000b0 9c 19 80 3f 5a 52 7c 3f 74 87 7d 3f 37 8d 80 3f
       1.0007815 0.9856316 0.9903481 1.0043095
0000c0 c6 91 81 3f 89 54 81 3f fb 77 80 3f 6d 23 81 3f
       1.0122612 1.0103923 1.0036615 1.0088936
0000d0 52 aa 7e 3f 7a 3d 7a 3f c2 e4 7c 3f d7 2e 82 3f
       0.9947864 0.97750056 0.98786557 1.0170544
0000e0 90 fb 82 3f d0 0c 80 3f 50 54 80 3f f7 2f 7d 3f
       1.0233021 1.000391 1.002573 0.98901314
0000f0 2d a8 80 3f d9 dc 77 3f d6 ac 7e 3f e7 0e 80 3f
       1.0051323 0.9682136 0.99482477 1.0004548

base.mlp.fc1.2.bias f4 [64]
000000 64 21 4b 3b 9d 02 bd 3c c3 63 57 bc 97 d1 4b 3b
       0.0030995244 0.023072535 -0.013146344 0.0031100267
000010 11 06 82 3a 03 44 dd 3b f9 29 85 bc 2f 06 91 ba
       0.0009920021 0.0067524924 -0.016255366 -0.0011064465
000020 b4 4b f5 3b 39 3d ae 3c dc ef 1a bc 5f cb 6b 3b
       0.007485831 0.021269428 -0.009456601 0.0035979373
000030 3a ce 2c bc 3b 5a 36 bc 24 72 60 3c 43 cc d0 3b
       -0.010547215 -0.011129911 0.013699088 0.006372006
000040 62 77 a5 3b ce d1 7d 3c 5b e5 2a bc 53 31 af 3c
       0.005049632 0.015491916 -0.010430659 0.021385824
000050 a4 63 8f bc df 44 d6 bb 27 4b 90 ba 12 09 94 3c
       -0.017503567 -0.006538972 -0.0011008725 0.018070731
000060 cc 60 d7 3a 5f 69 22 bc a0 90 9f 3c 94 1d 01 3c
       0.0016432046 -0.009912818 0.019478142 0.007880587
000070 64 05 4a 3c 0d e4 e0 bb b6 fb ef bb 51 5b 87 bb
       0.012330387 -0.0068631233 -0.0073237075 -0.004130759
000080 f6 25 fc bc cc d5 0b bb 69 e2 84 bb 47 d9 c2 3c
       -0.03077982 -0.002133715 -0.0040553105 0.023785247
000090 ee 68 ab bb 30 d3 11 bb c4 bf 0d 3c 5a 93 08 bb
       -0.0052310145 -0.0022251122 0.0086516775 -0.0020839782
0000a0 f8 c8 12 3c 2a a7 6d bc bd 9b ac ba 08 25 30 3c
       0.0089590475 -0.014505187 -0.0013168972 0.010751016
0000b0 42 97 df b9 6c 9c 35 3a e2 d9 59 39 3e bc 16 bc
       -0.0004264657 0.0006927911 0.000207759 -0.009200154
0000c0 a5 00 7a bb b3 1b 35 bc fa 36 81 ba 3f 63 99 3c
       -0.0038147357 -0.011053967 -0.0009858303 0.018724082
0000d0 7e c7 75 bb b1 d2 9d 3c 5d 59 3a 3c 21 e5 f4 bb
       -0.003750294 0.019265505 0.011373845 -0.0074736034
0000e0 39 cf 53 3b 4d e4 71 3c 9f c4 b1 bb 29 44 e9 bb
       0.003231956 0.014763904 -0.0054250504 -0.007118721
0000f0 89 af 11 3b c4 66 f4 3c d5 66 dd 3b 2a a7 d6 3b
       0.0022229871 0.029834159 0.0067566433 0.006550689

base.mlp.fc_h.0.weight f4 [64, 64]
000000 2e 3e ca bd 4b 7d da bc 9d a2 52 bd 59 bc 93 be
       -0.09875141 -0.026671072 -0.05142461 -0.28854635
000010 18 d8 51 bd 01 f8 2b 3d ba d5 45 3d 19 de 26 bd
       -0.051231474 0.04198456 0.04829953 -0.040739153
000020 cf b7 f3 3d 8b 7f bf bd 71 e2 9c 3e 77 57 a1 3d
       0.11900293 -0.09350499 0.3064151 0.07878011
000030 42 0e 43 be 4a 72 58 be 4c f4 91 bc a1 bf 17 3e
       -0.19048408 -0.21137348 -0.017816685 0.14819194
000040 d3 3c 1c 3e a4 39 be 3d 4c 2a c7 3d dc a1 80 3c
       0.15257578 0.09288338 0.09724864 0.01570218
000050 94 34 82 be 42 4d a1 be 9d 1f fd bc 3a 72 52 bd
       -0.2543074 -0.31504256 -0.030898863 -0.051378466
000060 b1 22 dc bc 18 14 21 3e 24 3f 03 bd bd 6b 88 3d
       -0.02687201 0.15730321 -0.032042637 0.066611744
000070 b1 6a be bd d5 e1 ee bd 3e f0 16 3c 0b 34 05 bc
       -0.092976935 -0.11664168 0.009212552 -0.008130084
000080 31 f5 fd 3d 55 c8 46 3e 18 48 a8 3e 71 73 89 3e
       0.12400282 0.19412358 0.32867503 0.26845887
000090 71 ea 25 bd 1a 80 91 bd 6e 8c c6 3e 9b d7 c4 3c
       -0.040506784 -0.071045116 0.38779014 0.02402859
0000a0 06 bd db 3d cd 46 d2 3e 96 b5 bf 3d 7e d7 ae 3d
       0.10729413 0.41069642 0.09360807 0.085371956
0000b0 09 18 44 be db b8 31 be 2c f5 61 3e fa ad f5 3d
       -0.19149794 -0.17355673 0.22066182 0.11996074
0000c0 0c ba a9 3e 9a 09 b2 be f4 06 13 3e 47 5a 9b bd
       0.33149755 -0.3477295 0.14358121 -0.075855784
0000d0 db bb db 3d e9 32 14 bc 24 4f c5 3e 3d 9d 38 be
       0.1072919 -0.009045341 0.38536942 -0.18028732
0000e0 98 42 8a bd 84 bf d0 bd e4 15 84 3d 4e 50 3f bc
       -0.06750983 -0.10192779 0.06449488 -0.011676861
0000f0 14 0e 9b be f2 ff 0a 3e c5 e4 72 be b2 69 6e 3e
       -0.30284178 0.13574198 -0.23720081 0.23282507
000100 a0 23 05 be 62 3d 64 3e 36 80 59 3e fa 8a 6d be
       -0.13001871 0.2228904 0.21240315 -0.23197547
000110 ea b7 f2 bd eb ba c7 3e 7e 73 fa 3c 29 f7 17 3e
       -0.11851485 0.39009795 0.03057265 0.14840378
000120 49 7d 01 3e a6 6d 54 bc f0 6e 86 3d 36 46 f1 3d
       0.12645449 -0.012965595 0.065641284 0.1178097
000130 ea 43 68 bd 59 ce 0e bc df 06 59 3e 12 f5 d7 3d
       -0.056705393 -0.008716189 0.21194027 0.1054479
000140 13 66 18 3e 76 68 f8 3e 53 55 fa bd 3e c3 b0 be
       0.14882688 0.48517197 -0.122233056 -0.34523958
000150 48 be c7 bd 9f 9f 80 bd 55 60 74 3d 22 f9 ba bd
       -0.0975309 -0.06280445 0.059662182 -0.091295496
000160 d2 3b 52 3e 4b f1 99 3c f1 7b 0c be 03 93 49 3d
       0.20530632 0.018791815 -0.13719155 0.049212467
000170 ba b7 89 3d 4e 71 7a be 1d 1e 28 3e 25 31 8c bd
       0.06724496 -0.24457285 0.16417737 -0.06845311
000180 3a 5f a8 bc 58 13 67 be 09 55 9f 3d 39 f6 1f be
       -0.02055322 -0.22565973 0.07779891 -0.1562127
000190 56 ce 8e 3d 27 1b 67 3d 2e ca 3f bd 63 fb b2 3d
       0.06972949 0.05642238 -0.046823673 0.087393545
0001a0 08 c6 01 3e 49 cd 1e 3e 3f 39 24 be d5 0a a4 bc
       0.12673199 0.15507998 -0.16037463 -0.020024696
0001b0 58 a4 e2 3d 41 ae 84 be e7 8d 9f bd e6 74 9b bd
       0.11066502 -0.25914195 -0.077907376 -0.07590656
0001c0 02 09 1f be a5 0f f3 bd e3 80 e4 be eb 78 bf 3e
       -0.1553078 -0.11868218 -0.44629583 0.3739694
0001d0 de 85 a9 be b7 54 45 bd 67 4f 1c be 12 b9 0c 3e
       -0.33109945 -0.048176493 -0.15264665 0.13742474
0001e0 94 be 50 3d aa 52 48 3e d6 35 d8 bc 54 ea 4e be
       0.050963 0.19562784 -0.026392858 -0.20206577
0001f0 c8 85 f4 3d b2 d2 03 be 4f 88 78 3d 7d f1 86 3e
       0.11939579 -0.12873343 0.06067687 0.26356116
000200 fc ec fd bd 7c 4e 77 bc f2 9f 6a 3d 8f e6 d5 3d
       -0.12398717 -0.015094396 0.057281442 0.10444366
000210 2a c4 24 3d cc c4 78 bd bd 24 06 be 08 be ad bc
       0.04022614 -0.060734555 -0.13099952 -0.021208778
000220 61 ec 67 3e 7f c0 d2 3d 69 54 cf 3d 5f 4d 59 be
       0.22648765 0.10290622 0.10123522 -0.21220921
000230 b2 b0 06 3e b3 43 94 3d f6 ad 43 3e 95 ea e3 3d
       0.13153341 0.07239475 0.1910933 0.11128727
000240 ea 3c 0d 3e 82 44 d1 bd 22 49 e5 bd 68 49 ee bd
       0.13792768 -0.10218145 -0.111955896 -0.11635095
000250 b2 bc bd 3d f8 65 92 3e f5 56 1a 3e f6 f7 cb 3d
       0.092645064 0.2859342 0.15072234 0.09959404
000260 46 d0 58 3e 7c 72 d0 bd 0c 95 8a 3e 9c e6 0f 3e
       0.211732 -0.10178086 0.2706684 0.14052814
000270 5c e7 87 be 96 40 d2 bd 92 c0 c8 3c d0 1a 9f 3d
       -0.265437 -0.10266225 0.024505887 0.07768786
000280 2d 55 d6 bd 5f e2 f8 bc 48 a6 a4 3e 33 c6 64 bd
       -0.10465465 -0.03038138 0.32158113 -0.05585308
000290 0e 35 1d be 32 42 99 3e 1a de 5a bd dd 55 70 be
       -0.1535227 0.29933316 -0.05343447 -0.23470254
0002a0 cd f3 c5 3b 81 19 54 be dc e7 8d be 8c 52 59 3e
       0.006041026 -0.20712854 -0.27715957 0.21222895
0002b0 7e e0 30 be a0 f9 cd be e6 a2 d8 3d 1a f4 14 3b
       -0.17273137 -0.4022951 0.105779454 0.0022728504
0002c0 88 ec 46 be 9a 0a cf 3d 5a f3 bd 3e 57 b1 f6 bd
       -0.19426167 0.10109444 0.37099725 -0.12045544
0002d0 4f 04 91 be f5 02 e1 bd b5 28 a3 3e c8 7b 73 3e
       -0.283236 -0.10986892 0.31866995 0.23777688
0002e0 c4 6f 2b be 21 f2 08 3d 56 4a bd bd 1c 25 67 3e
       -0.16741854 0.033434037 -0.09242694 0.2257275
0002f0 ea c4 e4 3d a4 39 ab 3e af d0 61 bd d5 2d 13 3e
       0.11170371 0.33442414 -0.055130657 0.14372952
000300 bf 16 51 3e d5 e6 47 3e cf fc 68 bd f4 9f 36 3e
       0.20418833 0.19521649 -0.056881722 0.17834455
000310 5c e4 16 be 1a 78 19 3e 29 c1 42 3e 26 17 a1 3d
       -0.1473555 0.14987221 0.19018997 0.07865743
000320 8a 4f 54 bd f5 fa 34 3d 2c ac 25 3e a1 d0 47 be
       -0.051833667 0.044184644 0.1617896 -0.1951318
000330 d2 2a 16 3e 64 36 0d be a5 f5 1c 3c 3c 30 7c be
       0.14664772 -0.1379028 0.009580051 -0.24627775
000340 93 2b 1e 3d b7 8f 64 be ec 2e 39 bd 79 e1 43 be
       0.038615774 -0.22320448 -0.045210764 -0.1912898
000350 ce 32 da 3c 8d 38 7f 3e 88 9e 90 3e 24 49 5d 3e
       0.026635554 0.24923916 0.2824595 0.21609932
000360 ed 46 75 bc b7 12 37 3d bf a9 04 be 53 fc d9 3c
       -0.014970523 0.044695582 -0.12955378 0.026609575
000370 0e eb 44 39 9b 52 cd 3e 7b 0c 8d 3e 58 29 09 3d
       0.00018779581 0.40102085 0.27548584 0.033486694
000380 7e d2 17 3e 01 a8 5b 3e 5b ac 53 be 1d de 23 3e
       0.1482639 0.21450807 -0.20671217 0.16002698
000390 1b 4b 51 3d b3 de 59 3e bf cc 72 be e2 8c a3 be
       0.051097017 0.2127636 -0.23710917 -0.31943423
0003a0 86 d8 97 3e 73 38 ad 3e 89 42 2f be 7d da 54 bd
       0.29657382 0.3383213 -0.17115225 -0.05196618
0003b0 1d bc 39 3d d1 b3 8e bd 2c 1a c4 3d 24 2a 81 be
       0.045345414 -0.06967891 0.095753044 -0.25227463
0003c0 40 89 34 3e 5f 64 3c be e3 3b 9d bc ba a2 9a 3d
       0.17630482 -0.18397664 -0.019193595 0.07550569
0003d0 34 f2 09 3d de 40 8d bd 26 9e c3 bd 17 e2 08 bc
       0.03367825 -0.06897138 -0.09551649 -0.008354685
0003e0 12 0f a8 3e c2 95 ef 3c d1 50 26 3e c6 69 81 3d
       0.32823998 0.029246215 0.16241767 0.06319003
0003f0 f9 47 b2 be f4 0a 15 3e 75 a4 72 3e e5 d5 da 3d
       -0.34820536 0.1455496 0.23695548 0.106853284

base.mlp.fc_h.0.bias f4 [64]
000000 00 00 00 00 00 00 00 00 00 00 00 00 00 00 00 00
       0.0 0.0 0.0 0.0
000010 00 00 00 00 00 00 00 00 00 00 00 00 00 00 00 00
       0.0 0.0 0.0 0.0
000020 00 00 00 00 00 00 00 00 00 00 00 00 00 00 00 00
       0.0 0.0 0.0 0.0
000030 00 00 00 00 00 00 00 00 00 00 00 00 00 00 00 00
       0.0 0.0 0.0 0.0
000040 00 00 00 00 00 00 00 00 00 00 00 00 00 00 00 00
       0.0 0.0 0.0 0.0
000050 00 00 00 00 00 00 00 00 00 00 00 00 00 00 00 00
       0.0 0.0 0.0 0.0
000060 00 00 00 00 00 00 00 00 00 00 00 00 00 00 00 00
       0.0 0.0 0.0 0.0
000070 00 00 00 00 00 00 00 00 00 00 00 00 00 00 00 00
       0.0 0.0 0.0 0.0
000080 00 00 00 00 00 00 00 00 00 00 00 00 00 00 00 00
       0.0 0.0 0.0 0.0
000090 00 00 00 00 00 00 00 00 00 00 00 00 00 00 00 00
       0.0 0.0 0.0 0.0
0000a0 00 00 00 00 00 00 00 00 00 00 00 00 00 00 00 00
       0.0 0.0 0.0 0.0
0000b0 00 00 00 00 00 00 00 00 00 00 00 00 00 00 00 00
       0.0 0.0 0.0 0.0
0000c0 00 00 00 00 00 00 00 00 00 00 00 00 00 00 00 00
       0.0 0.0 0.0 0.0
0000d0 00 00 00 00 00 00 00 00 00 00 00 00 00 00 00 00
       0.0 0.0 0.0 0.0
0000e0 00 00 00 00 00 00 00 00 00 00 00 00 00 00 00 00
       0.0 0.0 0.0 0.0
0000f0 00 00 00 00 00 00 00 00 00 00 00 00 00 00 00 00
       0.0 0.0 0.0 0.0

base.mlp.fc_h.2.weight f4 [64]
000000 00 00 80 3f 00 00 80 3f 00 00 80 3f 00 00 80 3f
       1.0 1.0 1.0 1.0
000010 00 00 80 3f 00 00 80 3f 00 00 80 3f 00 00 80 3f
       1.0 1.0 1.0 1.0
000020 00 00 80 3f 00 00 80 3f 00 00 80 3f 00 00 80 3f
       1.0 1.0 1.0 1.0
000030 00 00 80 3f 00 00 80 3f 00 00 80 3f 00 00 80 3f
       1.0 1.0 1.0 1.0
000040 00 00 80 3f 00 00 80 3f 00 00 80 3f 00 00 80 3f
       1.0 1.0 1.0 1.0
000050 00 00 80 3f 00 00 80 3f 00 00 80 3f 00 00 80 3f
       1.0 1.0 1.0 1.0
000060 00 00 80 3f 00 00 80 3f 00 00 80 3f 00 00 80 3f
       1.0 1.0 1.0 1.0
000070 00 00 80 3f 00 00 80 3f 00 00 80 3f 00 00 80 3f
       1.0 1.0 1.0 1.0
000080 00 00 80 3f 00 00 80 3f 00 00 80 3f 00 00 80 3f
       1.0 1.0 1.0 1.0
000090 00 00 80 3f 00 00 80 3f 00 00 80 3f 00 00 80 3f
       1.0 1.0 1.0 1.0
0000a0 00 00 80 3f 00 00 80 3f 00 00 80 3f 00 00 80 3f
       1.0 1.0 1.0 1.0
0000b0 00 00 80 3f 00 00 80 3f 00 00 80 3f 00 00 80 3f
       1.0 1.0 1.0 1.0
0000c0 00 00 80 3f 00 00 80 3f 00 00 80 3f 00 00 80 3f
       1.0 1.0 1.0 1.0
0000d0 00 00 80 3f 00 00 80 3f 00 00 80 3f 00 00 80 3f
       1.0 1.0 1.0 1.0
0000e0 00 00 80 3f 00 00 80 3f 00 00 80 3f 00 00 80 3f
       1.0 1.0 1.0 1.0
0000f0 00 00 80 3f 00 00 80 3f 00 00 80 3f 00 00 80 3f
       1.0 1.0 1.0 1.0

base.mlp.fc_h.2.bias f4 [64]
000000 00 00 00 00 00 00 00 00 00 00 00 00 00 00 00 00
       0.0 0.0 0.0 0.0
000010 00 00 00 00 00 00 00 00 00 00 00 00 00 00 00 00
       0.0 0.0 0.0 0.0
000020 00 00 00 00 00 00 00 00 00 00 00 00 00 00 00 00
       0.0 0.0 0.0 0.0
000030 00 00 00 00 00 00 00 00 00 00 00 00 00 00 00 00
       0.0 0.0 0.0 0.0
000040 00 00 00 00 00 00 00 00 00 00 00 00 00 00 00 00
       0.0 0.0 0.0 0.0
000050 00 00 00 00 00 00 00 00 00 00 00 00 00 00 00 00
       0.0 0.0 0.0 0.0
000060 00 00 00 00 00 00 00 00 00 00 00 00 00 00 00 00
       0.0 0.0 0.0 0.0
000070 00 00 00 00 00 00 00 00 00 00 00 00 00 00 00 00
       0.0 0.0 0.0 0.0
000080 00 00 00 00 00 00 00 00 00 00 00 00 00 00 00 00
       0.0 0.0 0.0 0.0
000090 00 00 00 00 00 00 00 00 00 00 00 00 00 00 00 00
       0.0 0.0 0.0 0.0
0000a0 00 00 00 00 00 00 00 00 00 00 00 00 00 00 00 00
       0.0 0.0 0.0 0.0
0000b0 00 00 00 00 00 00 00 00 00 00 00 00 00 00 00 00
       0.0 0.0 0.0 0.0
0000c0 00 00 00 00 00 00 00 00 00 00 00 00 00 00 00 00
       0.0 0.0 0.0 0.0
0000d0 00 00 00 00 00 00 00 00 00 00 00 00 00 00 00 00
       0.0 0.0 0.0 0.0
0000e0 00 00 00 00 00 00 00 00 00 00 00 00 00 00 00 00
       0.0 0.0 0.0 0.0
0000f0 00 00 00 00 00 00 00 00 00 00 00 00 00 00 00 00
       0.0 0.0 0.0 0.0

base.mlp.fc2.0.0.weight f4 [64, 64]
000000 13 52 01 be 1d 5a 54 bd f2 33 21 bd a7 f3 a9 be
       -0.12628965 -0.05184375 -0.03935618 -0.33193704
000010 c0 cf 21 bd 83 39 41 3d 7a c6 85 3d c3 20 96 bd
       -0.039504766 0.047173988 0.06531997 -0.073304676
000020 39 f8 16 3e 85 7b f1 bd 74 df 8f 3e d5 39 03 3e
       0.14743127 -0.117911376 0.2810017 0.1281503
000030 ea 49 2e be c6 db 39 be 2e f8 27 bd cb 14 24 3e
       -0.17020383 -0.18150243 -0.041008167 0.16023557
000040 2a c3 dd 3d e2 2b a2 3d 44 25 f2 3d 09 1d 61 3c
       0.1082824 0.07918526 0.11823514 0.013739833
000050 42 b4 67 be eb b5 93 be 89 13 66 bd bc 69 c1 bd
       -0.22627357 -0.2884973 -0.056170974 -0.09443995
000060 39 79 21 3c 7a 15 49 3e b3 a8 8b bd d1 62 5b 3d
       0.009855562 0.19637099 -0.06819286 0.053561036
000070 8e 1f f2 bd c2 94 fa bd f2 4f c7 3c 7f fb b8 3c
       -0.11822425 -0.122354046 0.024330113 0.02258086
000080 40 66 13 3e 23 3f 74 3e a0 e9 b1 3e f2 b3 7b 3e
       0.14394474 0.2385221 0.34748554 0.24580362
000090 4e 68 7a bd 7c b5 aa bd 8d 3b ba 3e fc bc 27 3d
       -0.06113463 -0.08335397 0.3637356 0.040951714
0000a0 0b 21 a6 3d 3a 24 dc 3e 01 8e 77 3d 87 66 75 3d
       0.08111771 0.4299639 0.06043816 0.05991223
0000b0 34 c4 5e be c4 cf 3a be e1 54 80 3e 9d 2e 12 3e
       -0.21754533 -0.18243319 0.25064757 0.14275594
0000c0 3b 94 b4 3e 90 72 bf be a1 53 ce 3d c7 10 81 bd
       0.3526934 -0.37392092 0.10074545 -0.06302028
0000d0 85 53 a5 3d 8a 06 04 bd cf 6a b6 3e e5 63 17 be
       0.08072571 -0.0322328 0.35628363 -0.147842
0000e0 ef 12 7c bd e2 51 dd bd c4 bb 19 3d cc 47 18 3a
       -0.061541494 -0.108066335 0.037532583 0.00058090384
0000f0 e5 48 a3 be 3c c0 db 3d e6 2b 88 be cf 27 50 3e
       -0.31891552 0.10730025 -0.26595992 0.20327686
000100 67 48 14 be ce 18 55 3e 37 2f 5f 3e eb 94 99 be
       -0.14480744 0.20810243 0.21795355 -0.29996428
000110 d9 06 08 be 1f a6 cf 3e b4 3c f6 3c 2b ba 0e 3e
       -0.13283862 0.40556428 0.030058242 0.13938205
000120 d1 d2 26 3e 69 00 ee bc 14 bf 4f 3d b9 ec 21 3e
       0.16291358 -0.02905293 0.050719336 0.15812959
000130 01 26 62 bd 2b d1 f9 bb 98 6c 52 3e 8c 5b 19 3e
       -0.055212025 -0.0076238117 0.20549238 0.14976329
000140 c3 7a 05 3e ba b6 ef 3e d8 1c c1 bd 8f 91 a7 be
       0.13035111 0.46819097 -0.0942933 -0.3272824
000150 1d ef b3 bd 7a 38 7a bd 8e 76 37 3d 9a 25 f8 bd
       -0.087858416 -0.061089016 0.044790797 -0.12116547
000160 f9 5a 57 3e ef 45 3f 3d 36 64 05 be 26 7e 76 3d
       0.21030797 0.046697553 -0.13026509 0.0601789
000170 63 95 57 3d c5 18 7d be ef a3 15 3e 2d 72 67 bd
       0.0526327 -0.2471648 0.14613317 -0.05650537
000180 d1 19 03 bc b3 80 5d be c0 73 9a 3d e3 41 2e be
       -0.008001761 -0.21631126 0.07541609 -0.17017321
000190 6f ff 70 3d 0b bf 99 3d c8 ed 7a bd ae 96 e2 3d
       0.05883735 0.07507142 -0.061261922 0.11063896
0001a0 7c 8c e4 3d 1d 7f 2a 3e 80 53 2d be 95 88 10 bd
       0.11159608 0.16650052 -0.16926384 -0.035286505
0001b0 ad fd c8 3d b4 b8 87 be 14 83 4e bd 98 88 c8 bd
       0.0981401 -0.26508105 -0.050417975 -0.09791678
0001c0 db 60 34 be b1 a7 08 be c2 fd f1 be ac da c4 3e
       -0.17615072 -0.13345219 -0.47263914 0.38448083
0001d0 5e 3d b0 be 8e 0e 80 bd 01 d2 2c be 78 64 01 3e
       -0.3442182 -0.06252776 -0.16876985 0.12635982
0001e0 1a 24 82 3d 14 79 53 3e c6 96 28 bd 0c c2 31 be
       0.06354542 0.20651656 -0.041159414 -0.1735918
0001f0 02 0f ec 3d 5b 15 0d be 86 0a 39 3d 67 62 83 3e
       0.115263 -0.13777678 0.04517605 0.25661013
000200 51 5c 08 be 36 75 c0 bc cb 38 99 3d 6d bd df 3d
       -0.13316466 -0.02349339 0.074815355 0.10924802
000210 9e 34 4f 3d 8e 2f 39 bd 5e ca 15 be ab 2b 0e bd
       0.05058729 -0.045211367 -0.14627978 -0.034709614
000220 3e d6 6c 3e f9 68 c0 3d 48 e1 bd 3d ef 7e 62 be
       0.23128602 0.09395022 0.092714846 -0.22118734
000230 6f 25 2c 3e ba 4a a7 3d d3 94 52 3e 3a 03 fe 3d
       0.16811155 0.0816855 0.20564584 0.12402959
000240 20 8a 34 3e 0a 67 d2 bd e2 73 dd bd b2 36 f8 bd
       0.17630816 -0.102735594 -0.108131185 -0.12119807
000250 f4 0c cf 3d 1a 32 97 3e 77 b0 11 3e a6 78 b8 3d
       0.101098925 0.29530412 0.14227472 0.09007387
000260 83 82 61 3e 65 0c 07 be d5 62 8d 3e 3c e2 f2 3d
       0.22022443 -0.13188322 0.27614465 0.11859557
000270 16 2a 8c be d7 2e 0a be 9f 3a 32 3d ae 96 ae 3d
       -0.2737586 -0.1349443 0.043512937 0.085248336
000280 d2 98 f0 bd 8a 0e 13 bd 5a da ac 3e 3e ad 80 bd
       -0.11747898 -0.035902537 0.3376034 -0.06283043
000290 c4 93 10 be f6 ea 90 3e b9 53 79 bd 40 2b 87 be
       -0.14118868 0.2830426 -0.06087086 -0.26400185
0002a0 10 fc f0 ba 5d 12 49 be 19 be 93 be 19 1b 50 3e
       -0.0018385667 -0.19635911 -0.2885597 0.20322837
0002b0 f5 af 3b be 69 c2 ce be 36 71 f2 3d 24 4e 57 3b
       -0.18328841 -0.40382698 0.118379995 0.0032852972
0002c0 21 8f 4b be 62 9e bd 3d 71 3e b9 3e 39 ba d8 bd
       -0.19878818 0.09258725 0.36180452 -0.10582394
0002d0 32 e4 92 be f1 19 f1 bd 93 a8 9d 3e 05 df 78 3e
       -0.28689724 -0.11772526 0.30792674 0.24303825
0002e0 1a d1 4b be ef cd 35 3d 50 98 ce bd 6b d4 5e 3e
       -0.19903985 0.044385847 -0.10087645 0.21760719
0002f0 71 a6 a3 3d 37 e5 a6 3e 18 b4 85 bd c6 f3 07 3e
       0.079907306 0.32596752 -0.06528491 0.13276586
000300 f2 0b 43 3e d4 9b 3c 3e b4 f3 9b bd 7e bc 77 3e
       0.19047526 0.18418819 -0.07614842 0.24192998
000310 c7 2d 1d be d2 46 1b 3e fe 5a 5b 3e 5d af a6 3d
       -0.15349494 0.15163735 0.2142143 0.08138917
000320 7f 0c 85 bd b7 96 06 3d 5e eb 19 3e b6 c3 47 be
       -0.06496524 0.032858577 0.15031192 -0.19508252
000330 93 e9 05 3e a6 a8 e1 bd 84 c9 d7 bb 3a 8b a0 be
       0.13077383 -0.11018495 -0.006585302 -0.3135622
000340 0a b2 97 3c fd c6 7f be 76 e0 bd bd 31 50 2f be
       0.018517513 -0.24978252 -0.09271328 -0.17120434
000350 84 dd 09 bd 0f 47 88 3e 12 9a 8a 3e 43 29 88 3e
       -0.03365852 0.26616713 0.2707067 0.2659398
000360 89 58 6a bb ab 5d 8f 3d f9 8b 17 be 4b 16 b2 3c
       -0.0035758337 0.070002876 -0.14799489 0.021739146
000370 7b 48 2d bc b5 36 d5 3e 58 42 9a 3e 67 38 3e 3d
       -0.010576363 0.416433 0.3012874 0.04644051
000380 7e 43 30 3e be 45 3f 3e 2a 52 39 be 85 93 1b 3e
       0.17213246 0.18678948 -0.1809775 0.15192993
000390 c3 35 95 3d d0 03 28 3e c3 27 7f be df 92 a9 be
       0.07285645 0.16407704 -0.24917512 -0.33119866
0003a0 3d d2 92 3e 15 17 b3 3e 1b 75 35 be a0 eb 86 bd
       0.28676024 0.34978548 -0.17720453 -0.06587911
0003b0 f1 f4 2f 3d 62 f7 8d bd 1f ae 76 3d 05 04 91 be
       0.042958204 -0.0693195 0.06022465 -0.2832338
0003c0 02 f3 3a 3e 76 70 48 be 5c 57 1f 3d 8f ac 8f 3d
       0.18256763 -0.1957415 0.03890167 0.07015335
0003d0 4d 2f a0 3c 8f 14 a5 bd b2 e8 df bd b9 20 1c bd
       0.019553805 -0.08060562 -0.10933055 -0.038117144
0003e0 06 24 9d 3e 62 f4 8b 3d 09 07 1a 3e 05 7a 96 3d
       0.30691546 0.06833722 0.15041746 0.07347492
0003f0 45 5f a7 be 7b 04 0d 3e 96 18 67 3e 48 a0 ec 3d
       -0.32689872 0.1377124 0.22567973 0.11554009

base.mlp.fc2.0.0.bias f4 [64]
000000 df 61 9b 3c 15 e9 4a 3c 42 3b 19 3c 07 5e 84 3c
       0.018967567 0.012384673 0.009352507 0.016158117
000010 6f de 40 bc ca af 5b bc 46 c6 4a ba ec e2 17 bb
       -0.011771782 -0.013408611 -0.00077352335 -0.0023176027
000020 88 39 f6 bb 39 fb 71 bb 1c 71 2d 3a 94 12 b8 bb
       -0.0075141825 -0.0036923422 0.0006616281 -0.005617449
000030 97 9f 56 bc 7d d9 54 3a e4 76 26 3c 38 c0 02 bc
       -0.013099573 0.00081195665 0.010160182 -0.007980399
000040 89 98 cb 3b b5 c7 95 bc 29 90 5a 3c f8 d5 31 bc
       0.006213252 -0.018283704 0.0133400345 -0.010854237
000050 c3 ab 06 bb 93 6f 74 bc 0d 13 fd ba e9 05 af 3c
       -0.0020549155 -0.0149191795 -0.0019308046 0.021365123
000060 5e 72 c5 3a 44 c7 83 3b ef ee b2 bb 90 d6 33 bb
       0.0015063991 0.004021557 -0.005460612 -0.0027441122
000070 09 dd f2 ba a7 b0 6b bc 54 3e 73 ba 63 b2 0a 3d
       -0.0018529008 -0.014385379 -0.0009279002 0.03386153
000080 ba 39 a6 ba 3c 38 cc ba 95 84 07 bc ee 82 d3 3c
       -0.0012681999 -0.0015580724 -0.008271356 0.025819268
000090 95 8d 90 3c f7 da 94 3c 59 cf 46 bb 15 1e 50 3c
       0.017645637 0.018170817 -0.0030335991 0.012702485
0000a0 a6 09 e2 3c b8 8b 15 bc aa 19 c9 3a 9d d5 9c 3b
       0.027592491 -0.00912755 0.0015342731 0.004786207
0000b0 d8 8d 21 3b 19 f7 9b bc 87 10 70 bc 4b 20 97 bc
       0.0024651196 -0.019038724 -0.014652378 -0.018448016
0000c0 96 07 cc bb ec 62 2a bc d1 23 02 3b f7 24 37 bc
       -0.0062264903 -0.010399561 0.0019857774 -0.011178247
0000d0 18 ea be bc 99 4f 55 bc f7 f0 b5 3a 68 33 71 bb
       -0.023304984 -0.013019466 0.0013881017 -0.0036804322
0000e0 3b e3 ad 3b 24 f9 07 bc 94 04 94 3c 5c 42 9c 3c
       0.005306629 -0.008299146 0.01806859 0.019074611
0000f0 48 be 19 3b 4b c8 dd bb 15 6f 4e 3c 1f f4 a0 3b
       0.0023459364 -0.0067682615 0.012599726 0.004911914

base.mlp.fc2.0.2.weight f4 [64]
000000 9e 4b 82 3f cd 0b 85 3f c7 ae 85 3f 71 d1 80 3f
       1.0179327 1.0394226 1.0443963 1.0063916
000010 2e 5e 7f 3f 55 61 7f 3f e3 5b 81 3f 13 db 80 3f
       0.9975308 0.9975789 1.0106167 1.0066856
000020 44 67 80 3f 4a f9 7f 3f 1a 43 83 3f ac d8 81 3f
       1.0031514 0.9998976 1.0254853 1.0144248
000030 64 49 80 3f ba 55 7c 3f 14 8e 80 3f a5 af 7f 3f
       1.0022397 0.9856831 1.0043359 0.9987739
000040 cc 79 83 3f 28 18 7f 3f a7 d9 81 3f 96 09 7d 3f
       1.0271544 0.99646235 1.0144547 0.9884275
000050 46 c1 80 3f d3 85 80 3f 9c b5 83 3f 4f 65 7b 3f
       1.0058982 1.004084 1.0289798 0.9820146
000060 f1 73 80 3f 44 dc 7d 3f ca b0 81 3f 72 d3 7f 3f
       1.0035383 0.99164224 1.0132077 0.99932015
000070 30 3f 81 3f cf 05 81 3f 67 bb 7e 3f d4 28 82 3f
       1.0097408 1.0079898 0.99504703 1.016871
000080 27 7e 84 3f c6 46 7f 3f 41 8f 7f 3f 8a a0 81 3f
       1.0350999 0.99717367 0.99827963 1.0127118
000090 0c 1a 7d 3f 85 df 81 3f f2 b7 75 3f a5 6c 8a 3f
       0.9886787 1.0146338 0.95983803 1.0814406
0000a0 65 e5 7f 3f d8 f5 7f 3f ad 1e 78 3f 6b 58 7f 3f
       0.99959403 0.999845 0.9692181 0.9974429
0000b0 42 11 82 3f 82 4f 7b 3f fe 18 80 3f 5a aa 7b 3f
       1.0161517 0.98168194 1.0007627 0.9830681
0000c0 96 07 81 3f 86 57 82 3f 0a e2 7a 3f 55 31 7c 3f
       1.008044 1.018296 0.9800116 0.98512775
0000d0 04 f4 7a 3f ea 10 80 3f 72 b8 80 3f 82 94 7d 3f
       0.9802859 1.0005162 1.0056288 0.9905473
0000e0 0c e1 80 3f 29 81 7c 3f e2 f0 89 3f 06 10 86 3f
       1.0068679 0.9863458 1.0776637 1.047364
0000f0 9f 1f 82 3f 4d 4c 84 3f 38 f0 85 3f 82 1d 88 3f
       1.01659 1.0335785 1.0463934 1.0634005

base.mlp.fc2.0.2.bias f4 [64]
000000 75 66 68 3b 6d b3 93 3c 02 56 45 3c 03 4b 40 ba
       0.003546146 0.018029893 0.012044432 -0.00073353964
000010 55 dd fc bb c0 ae 3f bb aa cd d2 ba 63 b7 4a bb
       -0.0077168145 -0.0029248446 -0.0016083021 -0.003093206
000020 6c ef d5 ba 94 2c 2e ba 5b 74 70 bb ae 64 76 bc
       -0.0016321964 -0.0006644216 -0.0036690447 -0.015038652
000030 37 72 03 bc 6c 85 16 bb 89 40 88 ba 07 2a 6f 3b
       -0.008022836 -0.002296771 -0.001039521 0.0036493556
000040 f6 38 60 3c 45 ff 17 bb 65 0b cd 3b 42 be 0d 3b
       0.013685456 -0.0023192924 0.006257462 0.0021628295
000050 02 a0 95 bb 5a 3b 6b bc 94 b5 c1 bb d2 0e 16 3d
       -0.0045661936 -0.014357412 -0.0059115384 0.036635228
000060 ba ca 21 ba 8a 84 f5 3b 1f 7e 12 3c 0a 8a e6 3b
       -0.0006171871 0.0074926065 0.008941202 0.0070354985
000070 10 8d 02 3c 23 18 21 bb ec 11 44 3c aa 54 75 bb
       0.007968202 -0.0024581037 0.0119671635 -0.0037434497
000080 e2 de 73 bb 31 02 02 3b cd f7 c7 3b 6d 2a 64 bc
       -0.0037211706 0.0019837732 0.006102538 -0.013926131
000090 b7 9e 8c 3c 4d eb b7 3b 54 1b 03 3c e9 3c 1a bb
       0.017165525 0.005612767 0.008002121 -0.002353484
0000a0 93 f9 06 bb 30 6c 3e bb ea 8d f5 3b 7b ed ef 3b
       -0.0020595535 -0.0029056184 0.007493724 0.007322011
0000b0 13 76 21 bc 79 19 82 3c e2 70 79 bc 7f 85 4b bb
       -0.009854811 0.015881287 -0.015224667 -0.0031054912
0000c0 d9 be 84 bc 2b fa 82 bb 55 bf af 3c 08 a6 39 3c
       -0.016204285 -0.0039971075 0.021453539 0.011331089
0000d0 34 23 88 3b 15 e1 bc b8 88 8a d2 b9 78 36 05 3c
       0.004154587 -9.0064634e-05 -0.00040157535 0.008130662
0000e0 a4 4c 07 bc 2f 7c 00 3c 6c e1 b0 bb 54 5b 11 3c
       -0.008258019 0.007842108 -0.005397966 0.008871872
0000f0 e4 ba 1f 3b e6 c4 7d bc c5 20 3b b9 c4 42 4f bc
       0.002437287 -0.015488839 -0.00017845917 -0.0126501955

rnn.rnn.weight_ih_l0 f4 [192, 64]
000000 cf 90 1a be e8 e2 6d bd 0c 63 71 bc 61 01 a0 3b
       -0.15094303 -0.058077723 -0.014733087 0.004882977
000010 64 c7 a8 3d 91 5a 2f 3d fd 47 85 3c cc 1b e7 bc
       0.08241156 0.04281098 0.016269678 -0.028211497
000020 10 fc 09 3d 2e 6f 92 3c 98 4f cb 3d b5 66 32 3d
       0.03368765 0.01787528 0.09927291 0.04355498
000030 df af 8d bd 4d 38 e2 39 44 b0 b0 3d 4e 93 77 3d
       -0.069183104 0.00043148026 0.0862737 0.060443215
000040 48 66 93 3d f6 9a 27 3d 6d a6 79 bd 3a 0f bb 3c
       0.07197243 0.040919267 -0.06094973 0.022834409
000050 8a a5 8a bc 60 37 e6 3d 2e d9 04 be 8a a3 d9 3d
       -0.016924638 0.11241031 -0.12973472 0.10626896
000060 db cc 86 3c 02 17 c4 3d 02 23 76 bd ed 55 24 3d
       0.016455105 0.09574701 -0.06009198 0.040121008
000070 e0 b8 5d bd be 11 16 bd 78 05 61 bb b1 21 f9 bc
       -0.05413139 -0.036638014 -0.0034335535 -0.030411573
000080 f7 f6 5e 3c c7 77 69 bd 37 52 93 bd 52 51 82 bc
       0.013608686 -0.056998994 -0.071934156 -0.015907917
000090 ad 86 96 bd 0b 15 6d 3d d4 cd 21 3c 66 b3 1b bd
       -0.07349906 0.057881396 0.009875733 -0.038012885
0000a0 d9 22 50 bd c4 41 e7 3a 49 05 8c 3c 8b e9 e4 bd
       -0.050814483 0.0017643501 0.017092364 -0.11177357
0000b0 bd 4e 28 3d fc 9d 80 bd cc 91 e8 3c 20 5f 22 3b
       0.041090716 -0.06280133 0.028389834 0.0024775937
0000c0 51 38 29 bd 90 f2 22 3d f9 10 05 bd 18 59 c3 bb
       -0.041313473 0.039782107 -0.03248689 -0.0059615485
0000d0 f9 d0 a2 bd 41 3e 32 bd 6d 61 68 bd fc 59 9f bd
       -0.079500146 -0.0435164 -0.056733537 -0.07780835
0000e0 da 7a dd 3c 3e 61 3b be a2 5f 90 3c 03 87 de 3b
       0.02703612 -0.18298814 0.017623726 0.006790997
0000f0 04 56 e1 bc a6 12 80 bd fa 4b c6 3d 38 1d f1 3b
       -0.027506836 -0.06253557 0.0968246 0.0073582195
000100 f2 c7 2a 3d b2 10 4b 3d 6f b3 01 3d 42 8d 06 be
       0.04169459 0.04957647 0.03166526 -0.13139823
000110 74 ae 0c 3e 48 21 e3 bd 6f 71 8e 3d fb a7 91 bc
       0.13738424 -0.11090332 0.069552295 -0.017780295
000120 b9 e1 22 3e 92 75 18 3e 8c 56 08 3e 78 e2 63 3b
       0.15906419 0.148886 0.13314265 0.0034772437
000130 1d ed 29 3d dd 46 97 3b a6 d9 4e 3c 61 2b 46 bd
       0.041485894 0.004616602 0.012625134 -0.048381213
000140 d9 c6 d6 bd 14 ec ae 3b 28 41 8e bd ac df 0d bd
       -0.10487146 0.0053382013 -0.06946021 -0.03463714
000150 b4 1b 70 3c 4d 2d 6f 3d c3 68 9c 3c c8 0e af 3d
       0.014655042 0.05839281 0.019092923 0.08547741
000160 82 1e b6 bd 00 f1 63 bc f6 b7 bb 3d 86 eb df bd
       -0.08892538 -0.013912439 0.09165947 -0.109335944
000170 6a 36 1a 3c e8 59 02 3b 05 7f 49 bd 96 63 41 bc
       0.009412387 0.0019890014 -0.0491934 -0.011803528
000180 42 87 83 bd 1e cc d7 3d f3 ab 0c be af 02 fa bd
       -0.06422283 0.10536979 -0.13737468 -0.12207543
000190 ba c2 de bc f2 74 60 3d ce 55 fc bd e3 72 22 bd
       -0.027192462 0.054799028 -0.123210534 -0.039660346
0001a0 ae 5e 19 3c da a0 15 3d 9b 82 df bd af 11 84 3c
       0.009360952 0.036530353 -0.10913583 0.016121713
0001b0 90 79 d1 bd 9c 37 37 bb c2 27 de 3d 17 38 f4 bc
       -0.10228264 -0.002795673 0.10847427 -0.029811902
0001c0 f1 f9 f0 bc e9 26 e0 bd 0d 05 8e bd dd 1d 09 bd
       -0.029416056 -0.109449215 -0.06934557 -0.033475745
0001d0 19 7c 02 bd 8b 14 19 3e f3 78 4a bc 31 c9 d7 bc
       -0.03185663 0.14949243 -0.012357938 -0.026341053
0001e0 54 9d 3a 3a 18 64 2b 3e 28 16 85 bd d4 39 1f be
       0.00071187806 0.16737401 -0.064983666 -0.15549403
0001f0 24 47 8d 3c e2 26 76 3c c7 14 b0 bd 14 2c bc bb
       0.017245837 0.015023919 -0.08597713 -0.005742559
000200 ab cd d0 3d 88 d7 10 bd e2 69 68 be b1 40 0e 3d
       0.10195478 -0.035361797 -0.22696641 0.034729663
000210 35 f6 a4 3d 09 b7 56 3e 1b 51 6f 3e e6 fe 9e 3d
       0.08054773 0.2096826 0.23370783 0.07763462
000220 ac f0 ca ba 8d c4 fa 3d 01 12 64 bc f4 e4 4c 3d
       -0.0015483103 0.1224452 -0.013920308 0.050023034
000230 32 1d bc 3d 9a fc b4 3c ca 90 97 3c 17 38 23 3d
       0.09185256 0.022093106 0.018501658 0.039848413
000240 71 f0 27 bd 59 aa 82 3d 33 15 a9 bd 99 d5 2a bc
       -0.041000787 0.063801475 -0.082559966 -0.010426902
000250 3a 40 b3 bc 00 7b 02 be 40 ed e5 bd 17 ab fb bc
       -0.021881212 -0.12742233 -0.112268925 -0.03072123
000260 66 af 8f 3c a3 82 c4 3c 88 3a a9 bd 88 30 46 be
       0.017539691 0.023988074 -0.08263117 -0.1935445
000270 bc a6 17 bd a5 91 60 3a 7b 51 57 bb f6 f6 d7 bc
       -0.037024245 0.00085666246 -0.0032854963 -0.026362877
000280 eb d9 2d bd 25 95 f3 bd 9e 96 82 bd ed f6 3c bd
       -0.04244415 -0.118936814 -0.06376384 -0.046133924
000290 e3 2b 95 bd ca 32 6f bc 9d da af 3d 13 3d db bc
       -0.07283761 -0.014599511 0.08586619 -0.02676252
0002a0 a9 15 2f bd 0f 1f b5 bd 15 06 f7 3d 0f 68 5f 3c
       -0.042745266 -0.088438146 0.12061707 0.013635649
0002b0 46 75 c3 bd 91 0d 00 be 50 39 e6 bd 66 b2 b1 3d
       -0.095438525 -0.12505175 -0.112414 0.08676605
0002c0 18 5b b2 3d b1 90 8a bd 5f 50 11 3e 21 e3 9b 3c
       0.08708781 -0.06765879 0.14190815 0.019029202
0002d0 79 bd 68 3d dc 82 8d bd 04 2f 58 bc 40 1e ba 3d
       0.05682132 -0.06909725 -0.013194803 0.09087801
0002e0 64 7f da 3d 35 94 19 3e b7 58 b0 bd 7f dd 7d 3d
       0.10668829 0.14997943 -0.08610671 0.061978813
0002f0 13 4e 87 bc f2 7e 3c 3c 41 50 8f bc b5 c7 07 3d
       -0.01651672 0.0115048755 -0.017494323 0.03314944
000300 7b d2 c6 bd 61 a8 7b bc 3a 29 83 3c 3a 82 f3 3b
       -0.09708115 -0.015359969 0.01601087 0.0074312957
000310 23 db bc bd 21 bb 15 3d da e4 3a 3d c4 17 44 3c
       -0.092214845 0.036555413 0.045628406 0.011968557
000320 54 1b c7 3d b4 b7 1a 3d 12 4f 94 bc a2 0a 77 bd
       0.09722009 0.03777285 -0.01810411 -0.060312875
000330 94 de aa bd a5 35 8f 3d fa 52 50 bd da 5d da bb
       -0.08343235 0.06992654 -0.050860383 -0.00666402
000340 67 60 c1 bc 3d 2d 9f 3d a1 1b 68 bd 89 7a dc 3d
       -0.023605539 0.077723004 -0.056666974 0.10765559
000350 0d 0c e6 3c 5e ba 82 b9 70 13 f4 bd 37 d2 a0 3c
       0.028081918 -0.00024934387 -0.1191777 0.019631488
000360 1e dd 70 3d ec 60 ad 3d 95 b5 88 3d db f9 2a 3c
       0.058804624 0.08465752 0.06675259 0.010435547
000370 95 c7 42 bd a2 cc 72 bb ba 3f 0b 3e 46 62 ef bd
       -0.047553618 -0.003704824 0.13598529 -0.11688666
000380 82 fa ba bd 6e 5b 25 be 79 95 0b 3b e7 80 2d 3d
       -0.09129812 -0.16148159 0.002129881 0.04235926
000390 bb c0 04 3e 3f 2e 82 bc 39 4c 3e bd e3 2a 83 3d
       0.12964146 -0.015891192 -0.04645941 0.06404664
0003a0 c8 bd a2 3b 58 e5 0e be 79 c2 e4 3c ff 32 14 3d
       0.0049664713 -0.13954675 0.027924763 0.036181446
0003b0 93 20 23 3e 54 b7 25 3d f4 93 d3 3c c2 7e 56 bd
       0.15930395 0.04045804 0.025827385 -0.05236698
0003c0 95 51 5c bd 07 5a d8 3d 57 07 43 bd 50 27 59 3d
       -0.05378874 0.10564046 -0.04761442 0.053016007
0003d0 12 64 2e 3c 63 be 59 3e 23 3b a4 3d 9d 28 a1 bc
       0.010643976 0.21264033 0.08019092 -0.019672686
0003e0 55 10 36 3d d9 c3 ad bd 77 46 7f 3c ee 07 7e 3c
       0.04444917 -0.084846206 0.015580765 0.01550482
0003f0 59 af c7 3d 7b 5e 22 3d 9a a5 ed 3c bc dd 93 3d
       0.09750242 0.039640885 0.029009629 0.07220027
