onpolicy/critic.pt (torch, 234229 bytes, 21 tensors)

base.feature_norm.weight f4 [345]
1.0126762 0.9985255 0.9963277 0.9970972 0.9919329 0.9995723 0.99605685 0.9953312
1.0073932 0.9978591 1.0003496 0.99853534 1.0030738 0.9974149 0.9980954 0.993337
0.9955919 1.0012777 0.99455094 0.9978853 1.0002171 0.99477845 0.99754107 1.0030314
0.9987007 0.9998639 0.9824357 0.99671793 1.0069383 0.998883 0.9968721 1.002298
0.99980676 0.99738187 0.99516463 0.9978237 1.0027186 0.99887025 0.9950591 0.99368805
1.0001489 0.9915483 1.0012324 0.9926395 1.0634013 0.9978288 0.9955007 1.0000483
1.000262 0.99870443 0.9974281 1.0042608 0.9914266 0.9969212 0.9955093 0.9991908
0.9969946 0.9943567 0.99820507 0.99974996 0.9957076 0.9950547 0.9954524 0.99434835
1.0044955 1.0009952 0.9924318 1.0009801 0.99909055 1.004813 0.9945848 0.9949256
0.999798 0.995504 1.0016413 0.99092287 0.9967619 0.96834886 0.99839723 0.99888086
1.0014442 1.0049776 1.0020353 0.9972985 0.99706244 0.99925363 0.99593097 1.0018361
1.0311506 0.9993104 0.99051255 1.0186745 0.9994789 1.0014169 0.9940335 1.0050308
1.0050833 1.0029391 0.99437815 0.9931863 0.9959409 0.9951443 0.9985297 0.9874976
0.9922474 1.0000631 1.0014627 0.98819643 0.99291706 0.99048334 0.99034005 0.9988224
0.9963414 0.9976086 0.99835837 1.0202961 0.9970441 0.9996961 1.0021123 1.0003109
0.989834 0.99186194 0.9996548 0.995961 1.0016057 1.0048668 0.9965396 0.9961548
0.9904002 0.9968256 0.9920089 0.9997948 1.0022156 0.9969217 0.9999855 0.9983466
0.99620044 0.9958917 0.99866664 1.0013607 0.99500155 0.9980925 1.0067073 0.9955673
1.0000708 0.9982759 1.0027755 0.9959575 0.9899552 0.9914152 0.9957397 1.0051101
0.99218386 1.0006071 0.99646294 0.99821246 1.0029188 1.003602 1.0023454 1.0672212
0.9966041 0.99669623 0.98599696 0.98564804 0.99837697 1.0022624 0.9948077 1.0018756
0.9961964 0.991533 0.99300414 1.0029179 0.9991324 1.0021019 1.0050803 0.9974877
1.0082494 0.9923682 0.9936998 0.99116504 1.0013243 1.0006033 0.99741894 0.9953569
0.9931447 1.0006356 0.9916603 0.9991908 1.0009986 0.99875706 0.99511844 0.9905952
0.9928697 0.9890842 0.99669915 0.99719656 1.0054615 0.9983851 0.99916464 0.9992835
0.9970122 0.9978929 0.9978047 1.0175856 0.99947095 0.99155104 1.0073079 0.99124104
0.9956448 0.9935465 0.9927255 0.99581426 1.0085703 1.0027775 0.9987119 0.9899122
0.9939902 0.9898471 0.9972919 1.0005506 0.9907151 0.9977123 0.9947241 0.99624157
1.0007985 0.9938203 0.9943684 0.99545217 0.9940924 1.0014243 1.0267425 0.9997935
0.99463516 1.0047154 1.001375 0.9913151 0.9996589 0.9924859 0.9966953 1.0048132
0.9952965 0.9943129 0.99966854 0.98273677 0.99829227 0.999404 0.98606634 0.99020475
0.99931216 0.9859215 0.99486333 0.9980474 0.9934716 1.0049661 0.9951208 1.0100598
00000000: 609f 813f 5e9f 7f3f 550f 7f3f c341 7f3f
00000010: 51ef 7d3f f8e3 7f3f 95fd 7e3f 07ce 7e3f
00000020: 43f2 803f b273 7f3f 750b 803f 03a0 7f3f
00000030: b964 803f 9556 7f3f 2e83 7f3f 554b 7e3f
00000040: 1cdf 7e3f de29 803f e49a 7e3f 6975 7f3f
00000050: 1d07 803f cda9 7e3f da5e 7f3f 5563 803f
00000060: d9aa 7f3f 15f7 7f3f e880 7b3f e828 7f3f
00000070: 5be3 803f ccb6 7f3f 0333 7f3f 4d4b 803f
00000080: 56f3 7f3f 6b54 7f3f 1cc3 7e3f 6071 7f3f
00000090: 1559 803f f6b5 7f3f 31bc 7e3f 5762 7e3f
000000a0: e104 803f 1cd6 7d3f 6228 803f 9f1d 7e3f
000000b0: 891d 883f b571 7f3f 22d9 7e3f 9501 803f
000000c0: 9608 803f 18ab 7f3f 7357 7f3f 9e8b 803f
000000d0: 22ce 7d3f 3a36 7f3f b3d9 7e3f f8ca 7f3f
000000e0: 0a3b 7f3f 298e 7e3f 5e8a 7f3f 9def 7f3f
000000f0: b1e6 7e3f e8bb 7e3f f8d5 7e3f 9d8d 7e3f
00000100: 4f93 803f 9c20 803f 0310 7e3f 1e20 803f
00000110: 66c4 7f3f b69d 803f 1c9d 7e3f 72b3 7e3f
00000120: c3f2 7f3f 5ad9 7e3f c835 803f 1fad 7d3f
00000130: ca2b 7f3f b6e5 773f f696 7f3f a8b6 7f3f
00000140: 532f 803f 1ba3 803f b142 803f f44e 7f3f
00000150: 7c3f 7f3f 16cf 7f3f 55f5 7e3f 2a3c 803f
00000160: befc 833f ced2 7f3f 3b92 7d3f ed63 823f
00000170: d9dd 7f3f 6e2e 803f fb78 7e3f d9a4 803f
00000180: 92a6 803f 4f60 803f 918f 7e3f 7541 7e3f
00000190: fcf5 7e3f c7c1 7e3f a49f 7f3f a5cc 7c3f
000001a0: ed03 7e3f 1102 803f ee2f 803f 71fa 7c3f
000001b0: d02f 7e3f 5190 7d3f ed86 7d3f d3b2 7f3f
000001c0: 3b10 7f3f 4763 7f3f 6a94 7f3f 1099 823f
000001d0: 483e 7f3f 15ec 7f3f 3745 803f 300a 803f
000001e0: c365 7d3f aaea 7d3f 61e9 7f3f 4df7 7e3f
000001f0: 9e34 803f 7a9f 803f 381d 7f3f 0004 7f3f
00000200: de8a 7d3f f62f 7f3f 4cf4 7d3f 8df2 7f3f
00000210: 9a48 803f 4336 7f3f 0dff 7f3f a593 7f3f
00000220: fe06 7f3f c2f2 7e3f 9ea8 7f3f 962c 803f
00000230: 6cb8 7e3f fd82 7f3f c9db 803f 80dd 7e3f
00000240: 5202 803f 028f 7f3f f35a 803f 12f7 7e3f
00000250: b46d 7d3f 63cd 7d3f cce8 7e3f 73a7 803f
00000260: c3ff 7d3f e513 803f 3218 7f3f da8a 7f3f
00000270: a55f 803f 0876 803f db4c 803f b49a 883f
00000280: 7221 7f3f 7c27 7f3f 4c6a 7c3f 6e53 7c3f
00000290: a295 7f3f 224a 803f b8ab 7e3f 763d 803f
000002a0: ba06 7f3f 1bd5 7d3f 8535 7e3f 9d5f 803f
000002b0: 24c7 7f3f e044 803f 79a6 803f 5b5b 7f3f
000002c0: 510e 813f d80b 7e3f 1c63 7e3f febc 7d3f
000002d0: 652b 803f c513 803f d956 7f3f b6cf 7e3f
000002e0: bb3e 7e3f d414 803f 73dd 7d3f f8ca 7f3f
000002f0: b920 803f 8bae 7f3f 15c0 7e3f a697 7d3f
00000300: b52c 7e3f 9f34 7d3f ad27 7f3f 4648 7f3f
00000310: f6b2 803f 2a96 7f3f 41c9 7f3f 0bd1 7f3f
00000320: 313c 7f3f e975 7f3f 2170 7f3f 3f40 823f
00000330: 54dd 7f3f 4ad6 7d3f 77ef 803f f9c1 7d3f
00000340: 94e2 7e3f 1059 7e3f 4223 7e3f afed 7e3f
00000350: d518 813f 035b 803f 95ab 7f3f e36a 7d3f
00000360: 2476 7e3f 9f66 7d3f 864e 7f3f 0b12 803f
00000370: 819f 7d3f 136a 7f3f 3da6 7e3f b009 7f3f
00000380: 2a1a 803f 026b 7e3f ed8e 7e3f f4d5 7e3f
00000390: d77c 7e3f ac2e 803f 4c6c 833f 78f2 7f3f
000003a0: 69a0 7e3f 849a 803f 0e2d 803f d4c6 7d3f
000003b0: a5e9 7f3f 8e13 7e3f 6c27 7f3f b89d 803f
000003c0: c0cb 7e3f 4a8b 7e3f 47ea 7f3f a394 7b3f
000003d0: 1590 7f3f f1d8 7f3f d86e 7c3f 0f7e 7d3f
000003e0: ecd2 7f3f 5a65 7c3f 5daf 7e3f 0980 7f3f
000003f0: 2854 7e3f bba2 803f 3dc0 7e3f a449 813f

base.feature_norm.bias f4 [345]
-2.492973e-05 0.0001675637 -0.004634742 -0.0004418428 -0.0025868118 0.00035051402 -0.005729956 -0.0059969793
-0.0071613314 0.0019883956 -0.004374218 -0.0035469232 0.0025970845 0.0011240365 -0.0004007098 0.0011895946
-0.0020070816 0.009401421 0.001651894 0.007165496 0.0036348198 0.00657358 -6.82354e-05 0.0029058496
-0.0065634325 -0.0013723044 -0.008883431 -0.0065555 -0.0003654554 0.0037880586 -0.0027593484 0.004854464
-0.0010003633 0.0030017355 -0.0003067255 0.0032278232 -0.0018729058 0.0062682736 0.0017931693 0.0024241044
0.0026389507 0.0041233823 -0.00034452623 -0.004303819 0.0020542894 0.007953984 -0.0065183463 0.0017747886
0.0027281109 0.0013440208 0.004381055 -0.0024095848 0.004839382 0.004502208 0.0003825813 -0.0004743878
0.000104484214 -0.002876076 0.0025845615 0.004274366 0.00090714725 0.0013524622 -0.0022525284 0.003118331
-0.0053823707 0.0035069494 0.0020273088 -0.002175861 0.008987394 -0.0025509826 0.0036229102 0.006703647
-0.0016067321 0.0068882685 -0.0010153297 0.00479041 -0.003619293 0.017766742 -0.0016053572 0.0018510188
0.0017558931 -0.003061541 0.0027823753 -0.003196172 0.0095958505 -0.0012273532 0.0074817156 0.0054498008
-0.00047928304 -0.007123406 -0.004907143 -0.0060708616 0.001737445 -0.0067714103 0.00030154924 0.0041018375
-0.0028505048 -0.00038446975 -0.001337397 -0.008155354 0.0023274783 0.0027703966 0.0019481664 -0.0058510206
-0.0027151878 0.0015581577 0.007635113 -0.006310607 -0.008471067 -0.0014487882 -0.0066938135 0.0034279777
0.00074953906 -0.0029301299 -0.0017427925 0.0030410893 0.0025882549 -0.0014178414 0.0017864435 -0.0038110586
-0.012735151 0.0011080949 0.0016072599 0.0036467852 -0.006053437 -0.0030096013 0.016942453 0.005118048
0.0046577365 0.002778015 0.0018820624 0.0035826552 0.0039119055 -0.003350917 -0.0019771073 -0.0022504185
-0.0034472058 0.0021167647 -0.0022739817 -0.00023463448 -0.023055239 -0.0038638718 0.00519215 0.0036419895
0.003912569 0.0017470191 -0.005709532 0.005085867 0.019446263 7.929495e-05 0.0008402178 0.00333525
0.007997681 0.0020313566 0.0045684343 0.0068111666 -0.004737419 -0.00030488515 0.0021369525 -0.0012326629
-0.0023207462 -0.0046483395 -0.017586779 0.014503083 -0.00060564687 -0.0032886628 0.0052511683 0.00361437
0.00033386066 -0.0021586255 -0.004606015 0.0023933726 0.0026888915 0.0031530878 -0.00036818619 0.009656768
-0.0003850455 0.015300016 0.0058269803 0.0024664504 -0.0026458357 0.0024252043 -0.003264539 0.0022241785
-0.004307792 0.0059257247 0.0021687385 0.0067489794 0.004704159 -0.009021582 0.0057465816 0.0070223343
0.0029340484 -7.7419805e-05 0.0044964375 0.00088799576 -0.0003412189 0.0031499993 -0.0013056986 0.00019979215
0.0023450986 0.0018633428 -0.0039404575 -0.004414832 0.0014663793 -0.0041592014 -7.1393035e-05 0.0003158111
-0.004237893 -0.006370033 -0.0018830601 -0.00012156252 0.0048104213 0.0022747824 0.00052068784 -0.0023428483
0.00120179 -0.011364624 0.0041871513 -0.0063323677 -0.0031568727 -0.0037891832 -0.00079417403 0.0025264292
-0.004593551 0.0036713076 -0.0030291723 0.0024160696 0.0028494317 -0.0019856677 0.006403305 0.0035131415
-0.0022679328 0.014780737 -0.0029035504 -0.0010071436 -0.0014835744 -0.008097058 -0.0021686642 0.00041409145
0.005930179 0.005980487 0.0048395544 0.00040395622 -0.0016858468 0.0061169323 -0.0021019364 0.0056624506
0.0009016978 0.003071192 0.012030758 -0.0010197008 -0.0045846086 0.0042500384 0.0010848283 0.007262124
00000000: 3020 d1b7 0ab4 2f39 09df 97bb 23a7 e7b9
00000010: 8087 29bb 32c5 b739 5bc2 bbbb 4f82 c4bb
00000020: 9aa9 eabb be4f 023b 9a55 8fbb 7f73 68bb
00000030: d933 2a3b 6854 933a 5c16 d2b9 2cec 9b3a
00000040: 3e89 03bb 6b08 1a3c 5d84 d83a 89cc ea3b
00000050: 2836 6e3b 3067 d73b 9a19 8fb8 1170 3e3b
00000060: 1012 d7bb e5de b3ba cf8b 11bc 85cf d6bb
00000070: 989a bfb9 1441 783b 2fd6 34bb 3212 9f3b
00000080: 9f1e 83ba c4b8 443b 00d0 a0b9 e389 533b
00000090: 4a7c f5ba 1766 cd3b c708 eb3a b9dd 1e3b
000000a0: 3ff2 2c3b 701d 873b 87a1 b4b9 0d07 8dbb
000000b0: 42a1 063b 6d51 023c da97 d5bb 06a0 e83a
000000c0: 1bca 323b db29 b03a f48e 8f3b 20ea 1dbb
000000d0: ae93 9e3b 4287 933b 3195 c839 41b7 f8b9
000000e0: 891e db38 8c7c 3cbb bf61 293b fb0f 8c3b
000000f0: 9fcd 6d3a 1a45 b13a 289f 13bb ea5c 4c3b
00000100: 995e b0bb d9d4 653b 99dc 043b e498 0ebb
00000110: dd3f 133c 632e 27bb 596e 6d3b 44aa db3b
00000120: fc98 d2ba fcb6 e13b d014 85ba dff8 9c3b
00000130: a931 6dbb 8f8b 913c d96a d2ba e29d f23a
00000140: ff25 e63a 22a4 48bb 8358 363b de76 51bb
00000150: ea37 1d3c 24df a0ba 2e29 f53b 3e94 b23b
00000160: 4848 fbb9 766b e9bb 19cc a0bb 14ee c6bb
00000170: fbba e33a b5e2 ddbb 4119 9e39 b568 863b
00000180: 89cf 3abb a892 c9b9 994b afba 099e 05bc
00000190: 9b88 183b 8b8f 353b 9e59 ff3a ebb9 bfbb
000001a0: 4bf1 31bb 193b cc3a f82f fa3b 35c9 cebb
000001b0: 3bca 0abc 44e5 bdba c757 dbbb eca7 603b
000001c0: b77c 443a 6c07 40bb 6a6e e4ba 034d 473b
000001d0: b69f 293b ddd6 b9ba 1927 ea3a f4c2 79bb
000001e0: 18a7 50bc 7f3d 913a b1aa d23a e7fe 6e3b
000001f0: e95b c6bb bb3c 45bb e6ca 8a3c 4cb5 a73b
00000200: ed9f 983b 5c0f 363b 89af f63a fbca 6a3b
00000210: 712f 803b 0f9b 5bbb 5b92 01bb c27b 13bb
00000220: 84ea 61bb 6bb9 0a3b 1507 15bb 3708 76b9
00000230: 57de bcbc 0339 7dbb e922 aa3b 72ae 6e3b
00000240: 0235 803b 3cfc e43a 0717 bbbb 58a7 a63b
00000250: c54d 9f3c 274b a638 1042 5c3a 3694 5a3b
00000260: b508 033c 8220 053b ceb2 953b 3530 df3b
00000270: 5a3c 9bbb fed8 9fb9 1d0c 0c3b 4e91 a1ba
00000280: a917 18bb 1951 98bb 2612 90bc 579e 6d3c
00000290: 46c4 1eba 9b86 57bb fe11 ac3b 11df 6c3b
000002a0: 050a af39 ba77 0dbb 0eee 96bb 21da 1c3b
000002b0: 1d38 303b 09a4 4e3b 1d09 c1b9 6c37 1e3c
000002c0: efdf c9b9 ebac 7a3c 41f0 be3b 2ca4 213b
000002d0: c265 2dbb 2df0 1e3b e0f1 55bb 86c3 113b
000002e0: 6128 8dbb 952c c23b 6521 0e3b 8b26 dd3b
000002f0: 5925 9a3b 42cf 13bc d24d bc3b 9c1b e63b
00000300: 2a49 403b 715c a2b8 da56 933b 63c8 683a
00000310: a0e5 b2b9 3870 4e3b fa23 abba 4c7f 5139
00000320: 3ab0 193b 693b f43a f41e 81bb 4caa 90bb
00000330: 8633 c03a e949 88bb d8b8 95b8 7393 a539
00000340: 06de 8abb b6bb d0bb 03d1 f6ba 62ef feb8
00000350: bda0 9d3b 8414 153b c57e 083a 798a 19bb
00000360: 6185 9d3a b032 3abc 5f34 893b c07f cfbb
00000370: 89e3 4ebb f253 78bb 1e30 50ba 7392 253b
00000380: 8085 96bb 529a 703b 1485 46bb ec56 1e3b
00000390: 88bd 3a3b fa21 02bb d1d2 d13b bc3c 663b
000003a0: 99a1 14bb e82a 723c 7e49 3ebb 2202 84ba
000003b0: 7f74 c2ba 86a9 04bc 2620 0ebb 6a1a d939
000003c0: f251 c23b f6f7 c33b 2095 9e3b 16ca d339
000003d0: a2f7 dcba 8c70 c83b a4c0 09bb 148c b93b
000003e0: ea5f 6c3a 0d46 493b a81c 453c 7ba7 85ba
000003f0: 7c3a 96bb e843 8b3b cc30 8e3a 1df7 ed3b

base.mlp.fc1.0.weight f4 [64, 345]
-0.009452502 0.018802574 0.007434913 -0.05738032 0.0052620373 -0.11810546 -0.1180526 0.18401939
-0.022456313 -0.020539679 -0.050891038 0.010734191 0.038950946 0.02322206 0.00739822 -0.05363483
0.09237566 -0.11952837 -0.0785206 -0.019785468 0.024137426 0.042128067 -0.042068522 -0.106773436
-0.0065998323 -0.024798837 0.20478193 -0.07369758 -0.07248532 0.051553354 0.08629529 -0.0119163105
-0.07985261 -0.19303772 -0.09805838 -0.026846955 -0.056678206 -0.12964116 0.076117605 0.05983064
0.11980043 -0.0034787601 0.03153463 0.04090459 -0.08138774 0.037922643 -0.0077103185 -0.020999713
0.052464277 0.0036440878 -0.034600694 7.682594e-05 0.0003204394 -0.080028825 -0.007933255 0.13202624
0.038068153 -0.10798612 0.06273471 -0.04454009 -0.04276611 0.026311332 -0.037636716 -0.051803086
-0.071889885 -0.111985706 0.08925686 0.111137584 -0.04277526 -0.0057573006 0.081112854 -0.012607801
0.06447614 0.06709652 0.0720844 -0.03769414 0.061894394 0.042007662 -0.026034474 -0.0944844
-0.088358045 -0.0017760533 0.04072032 -0.1292181 0.0092930095 0.11960764 -0.037926093 -0.010766326
-0.03412518 0.073670834 -0.11334692 -0.12065877 -0.15427034 -0.15504006 -0.04000384 0.015673442
0.09887666 -0.029651381 -0.05116731 0.22627485 -0.017003613 0.035353564 -0.14048801 0.1282047
0.09147844 0.023173865 -0.03785524 0.10219738 0.0964568 -0.09984821 -0.03224666 0.028208468
-0.115070894 -0.012262007 0.0856134 0.041830856 0.029349582 0.023477156 0.051555503 -0.089071855
0.029903345 0.04621227 0.16003065 0.07050322 0.107682936 -0.00016157121 0.09117235 -0.10274735
-0.06611371 0.07214996 0.07341969 -0.11537618 -0.09469225 0.04338564 0.12471114 0.06817601
0.047292672 -0.07168479 -0.020573359 -0.056067802 -0.1422992 0.05577337 -0.013778485 -0.041280113
-0.10267495 -0.048902653 0.018992621 -0.04001527 0.0071649686 -0.13072893 -0.11769623 0.033361394
0.022406768 0.05427661 0.083644085 -0.09180822 -0.088177025 -0.0109506305 -0.04666515 -0.021716643
0.103906855 -0.04093842 0.07360804 -0.16993754 0.08978173 -0.0065848334 0.048785403 0.093225144
0.10478829 -0.008200208 0.072554044 0.008301464 0.08108634 -0.03195952 0.029920988 -0.026723735
0.025845781 0.047842447 -0.071873195 -0.050327417 0.11002324 -0.042690586 0.003902895 -0.032936852
-0.027783593 -0.04545529 -0.07697319 -0.02855459 0.02961911 -0.01180658 -0.107719734 -0.16719528
0.10280721 -0.15033166 -0.05590596 0.10092171 0.06699675 -0.10816485 -0.12131916 -0.0148125645
0.17095862 0.013572221 -0.02936102 -0.03385937 7.561306e-05 0.026931496 -0.043132253 0.030447919
0.04709219 -0.1178162 -0.1129147 -0.19468568 -0.11390878 -0.062201172 -0.07142219 -0.10030336
-0.0872175 0.031774737 0.12561336 -0.024532579 0.07059627 -0.044307284 0.1025946 -0.0076735294
-0.026120307 -0.041337848 0.06619607 -0.03133635 0.15313849 0.0976253 -0.011613583 0.04035873
-0.034593906 0.019487787 -0.011405113 -0.007438543 0.11990683 -0.10007159 0.038277972 0.032894243
0.035471864 0.03845829 -0.051545948 -0.053058174 0.09833873 0.007397256 -0.016668994 -0.014036474
-0.13907406 0.013094888 -0.06293557 0.15595181 0.00033502118 -0.036349334 0.072308935 0.10477183
00000000: abde 1abc db07 9a3c 92a0 f33b a007 6bbd
00000010: 2b6d ac3b 47e1 f1bd 90c5 f1bd 946f 3c3e
00000020: 4df6 b7bc d442 a8bc 1f73 50bd 76de 2f3c
00000030: 078b 1f3d 313c be3c c46c f23b 32b0 5bbd
00000040: 732f bd3d 4acb f4bd 69cf a0bd 2215 a2bc
00000050: dabb c53c 7b8e 2c3d 0b50 2cbd 08ac dabd
00000060: 6843 d8bb ee26 cbbc 5bb2 513e c2ee 96bd
00000070: 2f73 94bd 9c29 533d 96bb b03d a13c 43bc
00000080: c489 a3bd aeab 45be d5d2 c8bd 25ee dbbc
00000090: 6827 68bd a7c0 04be 8ce3 9b3d f910 753d
000000a0: ee59 f53d e9fb 63bb 752a 013d 928b 273d
000000b0: 9eae a6bd c654 1b3d d7a6 fcbb 9707 acbc
000000c0: c8e4 563d a6d1 6e3b 75b9 0dbd 9d1d a138
000000d0: a600 a839 27e6 a3bd 7cfa 01bc e331 073e
000000e0: 5aed 1b3d d427 ddbd 0e7b 803d ab6f 36bd
000000f0: 842b 2fbd dd8a d73c f528 1abd 792f 54bd
00000100: 013b 93bd c358 e5bd 4dcc b63d 1a9c e33d
00000110: 1c35 2fbd bda7 bcbb 7f1e a63d f390 4ebc
00000120: 110c 843d e669 893d fca0 933d 2c65 1abd
00000130: fa84 7d3d 3a10 2c3d 4046 d5bc 0981 c1bd
00000140: 10f5 b4bd 76ca e8ba 5aca 263d c051 04be
00000150: b541 183c daf4 f43d 6458 1bbd 3f65 30bc
00000160: d8c6 0bbd bce0 963d 6e22 e8bd f21b f7bd
00000170: 0bf9 1dbe d2c2 1ebe 11db 23bd 9765 803c
00000180: d97f ca3d 74e7 f2bc d094 51bd 98b4 673e
00000190: 294b 8bbc e6ce 103d 17dc 0fbe 1848 033e
000001a0: 0c59 bb3d 1ed7 bd3c 190e 1bbd dc4c d13d
000001b0: 258b c53d 387d ccbd 1315 04bd 7215 e73c
000001c0: 4aaa ebbd 96e6 48bc 1456 af3d d556 2b3d
000001d0: 896e f03c 2a53 c03c dd2b 533d 4e6b b6bd
000001e0: dcf7 f43c 1449 3d3d 13df 233e fe63 903d
000001f0: df88 dc3d 716b 29b9 92b8 ba3d 346d d2bd
00000200: a066 87bd 5cc3 933d 105d 963d 594a ecbd
00000210: 03ee c1bd 24b5 313d 8e68 ff3d dd9f 8b3d
00000220: f6b5 413d 7acf 92bd 7689 a8bc 5aa7 65bd
00000230: e2b6 11be 9e72 643d 28bf 61bc 5615 29bd
00000240: 3f47 d2bd 264e 48bd 6a96 9b3c 0de7 23bd
00000250: 1dc8 ea3b cedd 05be b90a f1bd f5a5 083d
00000260: 668e b73c 2751 5e3d 974d ab3d f305 bcbd
00000270: 2896 b4bd 466a 33bc f523 3fbd 1ae7 b1bc
00000280: 1ecd d43d 0baf 27bd d0bf 963d 1b04 2ebe
00000290: 7cdf b73d 96c5 d7bb 34d3 473d d3ec be3d
000002a0: 3e9b d63d 2a5a 06bc 3797 943d dd02 083c
000002b0: 9810 a63d fce7 02bd dc1c f53c bceb dabc
000002c0: 88ba d33c 71f6 433d 4132 93bd 1f24 4ebd
000002d0: dd53 e13d 53dc 2ebd b6c7 7f3b cbe8 06bd
000002e0: 6b9a e3bc 532f 3abd 1fa4 9dbd 51eb e9bc
000002f0: c7a3 f23c 6370 41bc 2a9c dcbd 3d35 2bbe
00000300: 968c d23d 8bf0 19be a6fd 64bd 0bb0 ce3d
00000310: 9835 893d 8885 ddbd 2e76 f8bd 66b0 72bc
00000320: c70f 2f3e 055e 5e3c 8686 f0bc 1fb0 0abd
00000330: 7492 9e38 719f dc3c 72ab 30bd ea6d f93c
00000340: bde3 403d 9f49 f1bd d23f e7bd af5b 47be
00000350: 0249 e9bd a8c6 7ebd cc45 92bd d96b cdbd
00000360: 179f b2bd 3a26 023d caa0 003e 8cf8 c8bc
00000370: c794 903d 8e7b 35bd 1e1d d23d 3b72 fbbb
00000380: 41fa d5bc e051 29bd ce91 873d 8b5a 00bd
00000390: 56d0 1c3e c6ef c73d e646 3ebc 324f 253d
000003a0: 57b2 0dbd daa4 9f3c 83dc 3abc 05bf f3bb
000003b0: b691 f53d 55f2 ccbd 5dc9 1c3d 1dbc 063d
000003c0: f24a 113d 7186 1d3d d821 53bd 8753 59bd
000003d0: d165 c93d ae64 f23b 6a8d 88bc 3df9 65bc
000003e0: 6e69 0ebe f18b 563c 5de4 80bd d5b1 1f3e
000003f0: c8a5 af39 0ae3 14bd b516 943d 9d92 d63d

base.mlp.fc1.0.bias f4 [64]
-0.0065057217 -0.0027123182 -0.012334469 0.0003342614 -0.0006490116 0.00012617133 0.0 4.866255e-05
-0.00343451 -0.0026138152 0.0032680242 -0.0010878016 -0.002525428 0.014302624 -0.010348091 -0.002190404
0.018176574 -0.0027476812 -0.0027794014 -0.003456154 -0.00284955 -0.0065096617 -0.0037522472 0.0019317216
-0.002882129 -0.0013938919 -0.003843094 -0.0017480294 0.003429934 -0.004100492 -0.003047936 -0.0035072633
-0.0014212384 0.0009109989 -0.002598058 0.0017274416 5.289493e-05 -0.002208836 -0.005203679 -0.0032635056
-0.0020177285 -0.0034284794 0.00048016192 -0.0029567208 -0.002672486 0.005169557 -0.005665615 -0.0029087984
-0.003475718 0.0016888551 -0.002497008 0.011985087 -0.0004267811 -0.002585851 -0.0025624805 -0.0008977575
-0.0030680557 0.0030333477 -0.0018396125 0.0 -0.0010808692 0.00058687537 -0.0050134817 -0.00085096667
00000000: f32d d5bb 26c1 31bb 8316 4abc ce3f af39
00000010: 6e22 2aba dc4c 0439 0000 0000 041b 4c38
00000020: 8415 61bb 8b4c 2bbb 592c 563b 9194 8eba
00000030: a781 25bb 8e55 6a3c 0a8b 29bc e28c 0fbb
00000040: 0ae7 943c 7112 34bb 9e26 36bb a480 62bb
00000050: 84bf 3abb 004f d5bb 43e8 75bb d231 fd3a
00000060: 1ae2 3cbb 40b3 b6ba 6bdc 7bbb 221e e5ba
00000070: bec8 603b 6c5d 86bb e1bf 47bb 1dda 65bb
00000080: d948 baba 1ad0 6e3a 2e44 2abb 526b e23a
00000090: 80db 5d38 1ec2 10bb a083 aabb 8ae0 55bb
000000a0: de3b 04bb 57b0 60bb 3ebe fb39 8bc5 41bb
000000b0: e024 2fbb 6365 a93b a0a6 b9bb 8aa1 3ebb
000000c0: dfc8 63bb 935c dd3a d8a4 23bb 195d 443c
000000d0: 97c1 dfb9 6177 29bb 4aef 27bb 7c57 6bba
000000e0: 6f11 49bb 21cb 463b 271f f1ba 0000 0000
000000f0: f4ab 8dba 8ad8 193a 2248 a4bb 6813 5fba

base.mlp.fc1.2.weight f4 [64]
0.99345136 1.0180355 1.0125107 1.0076212 0.999342 0.9579385 0.99852604 0.99368936
0.9991876 0.9924721 0.98289466 0.97497344 0.99364936 1.0041585 0.99792993 1.0076482
0.9993294 1.0175862 0.99920046 0.9888889 0.993265 1.0345957 0.98286563 1.079865
1.0043254 1.008303 1.0186111 1.0015644 1.0237854 0.99721485 1.0030982 1.0010656
0.9969797 0.9913379 0.99765235 0.9924169 0.99025345 1.0061985 1.0010223 0.9901841
0.9985925 1.0168498 1.0012989 0.9996334 0.99107075 1.0098467 1.0021327 0.9990626
0.9940832 0.9986375 0.98593575 1.0004536 0.98878324 0.9797674 1.0055321 0.98715895
0.98930603 1.0239578 0.99720836 0.9885026 0.97491646 0.99838156 0.9865458 1.0110043
00000000: d452 7e3f fd4e 823f f399 813f bbf9 803f
00000010: e1d4 7f3f 753b 753f 679f 7f3f 6d62 7e3f
00000020: c2ca 7f3f a712 7e3f fc9e 7b3f dc97 793f
00000030: ce5f 7e3f 4488 803f 5678 7f3f 9efa 803f
00000040: 0dd4 7f3f 4440 823f 9acb 7f3f d327 7d3f
00000050: 9d46 7e3f a26d 843f 159d 7b3f 0439 8a3f
00000060: bc8d 803f 1310 813f d961 823f 4333 803f
00000070: 660b 833f 7949 7f3f 8665 803f eb22 803f
00000080: 103a 7f3f 52c8 7d3f 2566 7f3f 090f 7e3f
00000090: 4081 7d3f 1dcb 803f 8021 803f b57c 7d3f
000000a0: c2a3 7f3f 2228 823f 902a 803f f9e7 7f3f
000000b0: d0b6 7d3f a842 813f e245 803f 91c2 7f3f
000000c0: 3d7c 7e3f b5a6 7f3f 4966 7c3f dd0e 803f
000000d0: e620 7d3f 09d2 7a3f 47b5 803f 73b6 7c3f
000000e0: 2943 7d3f 0d11 833f 0c49 7f3f 820e 7d3f
000000f0: 2094 793f ef95 7f3f 448e 7c3f 9768 813f

base.mlp.fc1.2.bias f4 [64]
-0.0013306339 0.0010741227 -0.012427896 -0.00097610673 0.001021793 0.00039801048 0.0014105724 0.0005505626
0.00081936794 0.007673032 0.008451779 0.0015555703 -0.0020791064 -0.005167535 0.0018401193 -0.0021345615
0.0005075933 -0.0026206889 0.00047833959 -0.0012708721 0.00026283573 -0.013007669 0.008322279 -0.0016631479
4.567443e-05 -0.0099189645 -0.019801239 -0.00052937405 -0.0004940142 0.003053019 -0.0049596173 -0.0008446491
0.0032217153 0.009643443 0.0023214784 0.0065455805 -0.0028564376 -0.005007891 -0.008406942 0.010413456
0.0010861683 -0.0024406393 -0.0035044823 0.0006087064 0.009161929 -0.008710847 -0.00062199275 0.0009876704
-0.0017762479 0.0024003077 0.013964339 0.002014032 -0.0052343323 0.00073978875 0.00029946846 -0.0011408689
0.010804687 0.00086154364 0.002757409 0.011232784 0.021902869 0.0016771938 -0.0024151744 -0.002473884
00000000: aa68 aeba 94c9 8c3a 609e 4bbc 6ae1 7fba
00000010: afed 853a 10ac d039 f5e2 b83a a153 103a
00000020: daca 563a 0f6e fb3b 5579 0a3c 47e4 cb3a
00000030: 9e41 08bb 6d54 a9bb 2830 f13a 00e4 0bbb
00000040: 0210 053a ddbf 2bbb a7c9 fa39 6493 a6ba
00000050: 37cd 8939 1e1e 55bc 2b5a 083c fcfd d9ba
00000060: 8c92 3f38 2783 22bc 3536 a2bc b1c5 0aba
00000070: bb80 01ba 2915 483b 4984 a2bb 716b 5dba
00000080: 6a23 533b 88ff 1d3c f223 183b 4f7c d63b
00000090: 1233 3bbb 3c19 a4bb 45bd 09bc 339d 2a3c
000000a0: c35d 8e3a 22f3 1fbb 75ab 65bb 9891 1f3a
000000b0: ea1b 163c f1b7 0ebc 3a0d 23ba b874 813a
000000c0: fdd0 e8ba 7b4e 1d3b afca 643c dafd 033b
000000d0: c384 abbb 62ee 413a fa01 9d39 3589 95ba
000000e0: 2406 313c 37d9 613a a5b5 343b b609 383c
000000f0: a56d b33c 49d5 db3a e747 1ebb e320 22bb

base.mlp.fc_h.0.weight f4 [64, 64]
-0.17736523 -0.3142645 -0.31087542 0.124552764 -0.055472896 -0.1774435 -0.047461733 0.06021548
0.022376135 0.121647604 0.20941664 -0.0376908 -0.11258135 -0.1322599 -0.07097562 -0.022995636
0.24028112 0.04880959 0.10475044 -0.0052034887 -0.049967926 -0.33962187 0.13829598 -0.12956722
-0.0832443 0.09441699 0.045479037 -0.059150483 -0.09038 -0.04012093 -0.36271295 0.07606073
0.3313606 0.18536097 -0.28484082 -0.1681989 0.15495744 0.14969039 -0.24167867 0.09667929
-0.32234466 -0.05239959 -0.013640605 0.0401585 -0.11251099 -0.19878535 0.047646586 0.06952204
-0.14564599 0.044351645 -0.06536306 -0.2114011 0.13325359 -0.2305433 -0.1264075 0.27887145
0.18405767 -0.22775792 0.2774981 0.036827184 0.19164385 0.48267403 0.06826238 -0.12925881
-0.4046469 -0.0769845 0.24426296 -0.20205641 0.13743325 -0.15400174 -0.20223229 0.05978622
0.060385495 0.18111736 0.121915266 -0.07376523 -0.3537592 0.058639985 0.06272311 0.08236337
0.14907667 0.12760027 -0.22301754 -0.023829509 0.00052500353 -0.022441495 0.08986901 -0.21894906
0.11062135 0.037442926 0.013786419 -0.39372545 0.18875809 -0.16191442 -0.08682659 -0.18867995
0.20551382 0.2964294 0.06218236 -0.058185484 -0.12020449 0.20223334 -0.20075989 -0.27690196
0.19294348 -0.11277047 -0.3302392 0.08337711 0.15673122 0.20327365 0.0034481778 0.01473529
-0.17742959 -0.28832814 -0.1010646 0.1708401 -0.11801884 0.14792822 0.064097114 -0.07971189
-0.14108321 0.17063977 -0.4152912 0.062115375 0.07311673 0.10406693 -0.12584329 0.16776441
-0.10162782 -0.20492987 -0.050308246 -0.25358286 0.03666518 0.08443729 -0.042908948 0.115007676
0.15900609 -0.18773735 0.322309 -0.07249043 0.3090302 0.20201707 0.075026944 -0.07261438
-0.099262826 0.27016485 0.28244555 -0.11035644 0.12047395 -0.121053204 -0.08317062 -0.013725377
-0.3083202 0.019650226 -0.067216486 -0.060950097 0.04174163 0.36866 -0.15684296 -0.019985376
-0.08793673 0.01146775 0.24835159 -0.045940597 -0.09910705 -0.162018 0.17867969 -0.041680656
0.08822168 0.42682838 -0.2675798 -0.17827116 -0.22015214 -0.41534615 -0.08083078 -0.009110492
-0.2955563 -0.056009777 0.045925114 -0.0064775436 0.06139646 -0.17846522 -0.062277984 0.18762611
-0.10099138 0.009117907 -0.19458917 0.21210892 -0.021113008 -0.105408214 -0.14609827 0.32757467
0.016469395 -0.47994718 -0.13663341 -0.24968046 -0.057235587 -0.12330138 0.05132039 0.344756
-0.2283151 -0.10510074 0.31191856 -0.07733864 0.0671509 -0.1780528 -0.23763219 -0.0133229
0.0116570145 0.08246894 -0.21525304 -0.025892753 -0.124523915 -0.08797498 0.1025704 -0.10441235
-0.26072913 -0.1748755 0.1306962 -0.09242567 -0.025341973 -0.017372947 0.28235376 0.22356956
-0.037355706 -0.39961272 -0.26754844 0.020192536 -0.32007772 0.18057778 -0.0066043898 -0.08147618
0.15469956 0.13807496 0.11700082 0.13894536 -0.13501213 0.20816392 -0.3566499 0.116195485
0.21837811 -0.06015962 0.04416312 -0.10022772 0.045553334 0.06916405 0.0930689 -0.2171448
0.083709754 0.05412266 0.030537657 -0.2180232 0.16515645 -0.13154413 -0.22899029 -0.03439683
00000000: 3b9f 35be 47e7 a0be 102b 9fbe 8515 ff3d
00000010: 8c37 63bd c0b3 35be 3c67 42bd 82a4 763d
00000020: 284e b73c 6122 f93d 5171 563e ab61 1abd
00000030: 0d91 e6bd 246f 07be aa5b 91bd 5861 bcbc
00000040: 410c 763e 91ec 473d 6687 d63d 0782 aabb
00000050: 2bab 4cbd ebe2 adbe 769d 0d3e 45ad 04be
00000060: fd7b aabd b25d c13d 3a48 3a3d c747 72bd
00000070: 2619 b9bd d855 24bd 83b5 b9be bac5 9b3d
00000080: 19a8 a93e 44cf 3d3e a8d6 91be 553c 2cbe
00000090: 2aad 1e3e 7048 193e 9d7a 77be cbff c53d
000000a0: 5c0a a5be f4a0 56bd d87c 5fbc 3d7d 243d
000000b0: 296c e6bd 638e 4bbe 1129 433d 9261 8e3d
000000c0: 3924 15be 12aa 353d 11dd 85bd 8879 58be
000000d0: a173 083e 8b13 6cbe f870 01be 3dc8 8e3e
000000e0: 9d79 3c3e 5f39 69be 3b14 8e3e 1ad8 163d
000000f0: 493e 443e 0d21 f73e 26cd 8b3d 6c5c 04be
00000100: e12d cfbe 0daa 9dbd 1220 7a3e e0e7 4ebe
00000110: 4dbb 0c3e a2b2 1dbe fb15 4fbe 65e2 743d
00000120: c856 773d d476 393e b6ae f93d 3a12 97bd
00000130: ed1f b5be 7b30 703d f974 803d 20ae a83d
00000140: 8ea7 183e a5a9 023e b65e 64be 1a36 c3bc
00000150: 64a0 093a 3ad7 b7bc 3e0d b83d 2f34 60be
00000160: 728d e23d c15d 193d 6fe0 613c 6296 c9be
00000170: cd49 413e e5cc 25be 24d2 b1bd 5135 41be
00000180: 3772 523e 98c5 973e eeb2 7e3d e753 6ebd
00000190: c62d f6bd 4216 4f3e 0094 4dbe 18c6 8dbe
000001a0: fa92 453e 34f4 e6bd 1d15 a9be 9ec1 aa3d
000001b0: 267e 203e f826 503e d3fa 613b 496c 713c
000001c0: 1ab0 35be bf9f 93be f5fa cebd b5f0 2e3e
000001d0: ddb3 f1bd 7f7a 173e 5945 833d fd3f a3bd
000001e0: 1e78 10be 31bc 2e3e 0ca1 d4be b16c 7e3d
000001f0: 39be 953d 0b21 d53d 10dd 00be 6fca 2b3e
00000200: 3f22 d0bd 23d9 51be 0510 4ebd 9dd5 81be
00000210: 3a2e 163d 75ed ac3d 4bc1 2fbd 2589 eb3d
00000220: 7ed2 223e 383e 40be af05 a53e dd75 94bd
00000230: 3539 9e3e 90dd 4e3e baa7 993d d9b6 94bd
00000240: 4f4a cbbd 0c53 8a3e b49c 903e 8f02 e2bd
00000250: 0cbb f63d beea f7bd 5c55 aabd 67e0 60bc
00000260: 25dc 9dbe 83f9 a03c cca8 89bd cfa6 79bd
00000270: 45f9 2a3d 01c1 bc3e 719b 20be 5fb8 a3bc
00000280: 2c18 b4bd 3be3 3b3c e14f 7e3e 352c 3cbd
00000290: a3f8 cabd 0ce8 25be cff7 363e 56b9 2abd
000002a0: 91ad b43d 4089 da3e 3800 89be b78c 36be
000002b0: 906f 61be 40a8 d4be 9c8a a5bd 2c44 15bc
000002c0: 2853 97be 826a 65bd f91b 3c3d 9341 d4bb
000002d0: db7a 7b3d 96bf 36be 3317 7fbd 0f21 403e
000002e0: 92d4 cebd 4663 153c 6242 47be 1533 593e
000002f0: 30f5 acbc 43e0 d7bd c99a 15be deb7 a73e
00000300: d3ea 863c a3bb f5be a1e9 0bbe 3cac 7fbe
00000310: dd6f 6abd 6f85 fcbd 5435 523d dc83 b03e
00000320: 6fcb 69be 0f3f d7bd cab3 9f3e b963 9ebd
00000330: 6986 893d 7953 36be da55 73be 4b48 5abc
00000340: 10fd 3e3c 7ae5 a83d 4b6b 5cbe 0a1d d4bc
00000350: 6506 ffbd 3a2c b4bd 6e10 d23d 24d6 d5bd
00000360: 4a7e 85be 9012 33be 3ad5 053e ab49 bdbd
00000370: f899 cfbc b651 8ebc ac90 903e 6bef 643e
00000380: 4c02 19bd 0a9a ccbe 1cfc 88be d16a a53c
00000390: 3ae1 a3be 62e9 383e a369 d8bb fcdc a6bd
000003a0: 9069 1e3e 8663 0d3e 209e ef3d b147 0e3e
000003b0: 9f40 0abe ec28 553e d19a b6be e6f7 ed3d
000003c0: 839e 5f3e ef69 76bd 63e4 343d 3144 cdbd
000003d0: 2296 3a3d e2a5 8d3d e89a be3d 355b 5ebe
000003e0: 0570 ab3d b9af 5d3d 1c2a fa3c 7941 5fbe
000003f0: c61e 293e 81b3 06be 6e7c 6abe b1e3 0cbd

base.mlp.fc_h.0.bias f4 [64]
0.0 0.0 0.0 0.0 0.0 0.0 0.0 0.0
0.0 0.0 0.0 0.0 0.0 0.0 0.0 0.0
0.0 0.0 0.0 0.0 0.0 0.0 0.0 0.0
0.0 0.0 0.0 0.0 0.0 0.0 0.0 0.0
0.0 0.0 0.0 0.0 0.0 0.0 0.0 0.0
0.0 0.0 0.0 0.0 0.0 0.0 0.0 0.0
0.0 0.0 0.0 0.0 0.0 0.0 0.0 0.0
0.0 0.0 0.0 0.0 0.0 0.0 0.0 0.0
00000000: 0000 0000 0000 0000 0000 0000 0000 0000
00000010: 0000 0000 0000 0000 0000 0000 0000 0000
00000020: 0000 0000 0000 0000 0000 0000 0000 0000
00000030: 0000 0000 0000 0000 0000 0000 0000 0000
00000040: 0000 0000 0000 0000 0000 0000 0000 0000
00000050: 0000 0000 0000 0000 0000 0000 0000 0000
00000060: 0000 0000 0000 0000 0000 0000 0000 0000
00000070: 0000 0000 0000 0000 0000 0000 0000 0000
00000080: 0000 0000 0000 0000 0000 0000 0000 0000
00000090: 0000 0000 0000 0000 0000 0000 0000 0000
000000a0: 0000 0000 0000 0000 0000 0000 0000 0000
000000b0: 0000 0000 0000 0000 0000 0000 0000 0000
000000c0: 0000 0000 0000 0000 0000 0000 0000 0000
000000d0: 0000 0000 0000 0000 0000 0000 0000 0000
000000e0: 0000 0000 0000 0000 0000 0000 0000 0000
000000f0: 0000 0000 0000 0000 0000 0000 0000 0000

base.mlp.fc_h.2.weight f4 [64]
1.0 1.0 1.0 1.0 1.0 1.0 1.0 1.0
1.0 1.0 1.0 1.0 1.0 1.0 1.0 1.0
1.0 1.0 1.0 1.0 1.0 1.0 1.0 1.0
1.0 1.0 1.0 1.0 1.0 1.0 1.0 1.0
1.0 1.0 1.0 1.0 1.0 1.0 1.0 1.0
1.0 1.0 1.0 1.0 1.0 1.0 1.0 1.0
1.0 1.0 1.0 1.0 1.0 1.0 1.0 1.0
1.0 1.0 1.0 1.0 1.0 1.0 1.0 1.0
00000000: 0000 803f 0000 803f 0000 803f 0000 803f
00000010: 0000 803f 0000 803f 0000 803f 0000 803f
00000020: 0000 803f 0000 803f 0000 803f 0000 803f
00000030: 0000 803f 0000 803f 0000 803f 0000 803f
00000040: 0000 803f 0000 803f 0000 803f 0000 803f
00000050: 0000 803f 0000 803f 0000 803f 0000 803f
00000060: 0000 803f 0000 803f 0000 803f 0000 803f
00000070: 0000 803f 0000 803f 0000 803f 0000 803f
00000080: 0000 803f 0000 803f 0000 803f 0000 803f
00000090: 0000 803f 0000 803f 0000 803f 0000 803f
000000a0: 0000 803f 0000 803f 0000 803f 0000 803f
000000b0: 0000 803f 0000 803f 0000 803f 0000 803f
000000c0: 0000 803f 0000 803f 0000 803f 0000 803f
000000d0: 0000 803f 0000 803f 0000 803f 0000 803f
000000e0: 0000 803f 0000 803f 0000 803f 0000 803f
000000f0: 0000 803f 0000 803f 0000 803f 0000 803f

base.mlp.fc_h.2.bias f4 [64]
0.0 0.0 0.0 0.0 0.0 0.0 0.0 0.0
0.0 0.0 0.0 0.0 0.0 0.0 0.0 0.0
0.0 0.0 0.0 0.0 0.0 0.0 0.0 0.0
0.0 0.0 0.0 0.0 0.0 0.0 0.0 0.0
0.0 0.0 0.0 0.0 0.0 0.0 0.0 0.0
0.0 0.0 0.0 0.0 0.0 0.0 0.0 0.0
0.0 0.0 0.0 0.0 0.0 0.0 0.0 0.0
0.0 0.0 0.0 0.0 0.0 0.0 0.0 0.0
00000000: 0000 0000 0000 0000 0000 0000 0000 0000
00000010: 0000 0000 0000 0000 0000 0000 0000 0000
00000020: 0000 0000 0000 0000 0000 0000 0000 0000
00000030: 0000 0000 0000 0000 0000 0000 0000 0000
00000040: 0000 0000 0000 0000 0000 0000 0000 0000
00000050: 0000 0000 0000 0000 0000 0000 0000 0000
00000060: 0000 0000 0000 0000 0000 0000 0000 0000
00000070: 0000 0000 0000 0000 0000 0000 0000 0000
00000080: 0000 0000 0000 0000 0000 0000 0000 0000
00000090: 0000 0000 0000 0000 0000 0000 0000 0000
000000a0: 0000 0000 0000 0000 0000 0000 0000 0000
000000b0: 0000 0000 0000 0000 0000 0000 0000 0000
000000c0: 0000 0000 0000 0000 0000 0000 0000 0000
000000d0: 0000 0000 0000 0000 0000 0000 0000 0000
000000e0: 0000 0000 0000 0000 0000 0000 0000 0000
000000f0: 0000 0000 0000 0000 0000 0000 0000 0000

base.mlp.fc2.0.0.weight f4 [64, 64]
-0.1967387 -0.33501905 -0.32382706 0.10877804 -0.069087654 -0.13625865 -0.06027684 0.045225833
0.009826845 0.10874509 0.20600663 0.024026727 -0.1009774 -0.14542577 -0.08382187 -0.06843458
0.22678846 0.032164656 0.091927834 0.026347117 -0.08176725 -0.3717177 0.13041194 -0.007935882
-0.061691392 0.099157564 0.032624986 -0.060470544 -0.13239543 -0.052994564 -0.33373463 0.08841406
0.31799838 0.17255504 -0.29774323 -0.17809442 0.1737908 0.13207479 -0.2486264 0.081149265
-0.33487436 -0.0010729729 0.017911613 0.027246902 -0.12536828 -0.21121065 0.021978399 0.056352045
-0.13748853 0.0626433 -0.07817295 -0.22343162 0.14116655 -0.16594933 -0.14863895 0.28924498
0.17150126 -0.26999137 0.26499805 0.024007145 0.17961061 0.47000477 0.07679246 -0.11473247
-0.45600736 -0.11535043 0.21121885 -0.13535564 0.0804391 -0.19799574 -0.2509663 0.03400106
0.012269754 0.13268952 0.18050231 -0.038524285 -0.38171306 0.031504225 0.013863958 0.034628637
0.22506273 0.10945076 -0.27193218 -0.06612293 -0.047973897 -0.06858761 0.05397746 -0.2200586
0.100614674 0.010682308 -0.036302894 -0.41211307 0.25312203 -0.21365173 -0.1363267 -0.22950137
0.15253553 0.24208117 0.013389808 -0.08914081 -0.11228309 0.15078932 -0.2503069 -0.32712802
0.14408174 -0.16385001 -0.31562728 0.034499325 0.10838284 0.28812963 -0.045444023 0.07449389
-0.20972237 -0.28929254 -0.14902088 0.25381717 -0.0831746 0.09935339 0.014368936 -0.07661569
-0.18902044 0.23594566 -0.47815457 0.013928235 0.019602083 0.14528412 -0.14997214 0.12305368
-0.11633479 -0.1830133 -0.05874145 -0.2411101 0.028445018 0.07706552 -0.051090743 0.14639634
0.15073909 -0.19580159 0.32234445 -0.06587137 0.321114 0.1977741 0.06679762 -0.099759094
-0.10742783 0.28900242 0.27423713 -0.10970408 0.089190125 -0.11823812 -0.09033155 -0.043350294
-0.2994452 0.02390726 -0.07560454 -0.049326688 0.054880362 0.36046204 -0.16633195 0.0029008738
-0.09609686 0.00334408 0.24019393 -0.053966902 -0.100489065 -0.16426583 0.1721264 -0.042607475
0.07996124 0.44055817 -0.26495066 -0.18642253 -0.22824499 -0.42368114 -0.07722527 -0.01746916
-0.2864064 -0.059186794 0.037875388 -0.014691892 0.06390584 -0.14840382 -0.04537105 0.19369109
-0.108954325 0.0048680822 -0.20275064 0.20398185 -0.029016659 -0.11357221 -0.14267275 0.3061894
0.009795598 -0.47443277 -0.12761694 -0.2469258 -0.04885805 -0.11883528 0.05993685 0.33564022
-0.21961421 -0.096499614 0.31263977 -0.07518057 0.057923466 -0.16993661 -0.22901289 -0.010750269
0.022100208 0.08955857 -0.20665577 -0.04086735 -0.12685448 -0.081062175 0.10888958 -0.10869065
-0.26963547 -0.18106936 0.13937584 -0.101780035 -0.03470477 -0.0086896205 0.27935496 0.21109284
-0.028803036 -0.39123234 -0.25892904 0.028909158 -0.32809883 0.18913206 -0.00029615255 -0.072965436
0.16333821 0.13012265 0.10860748 0.14756651 -0.12641045 0.22204356 -0.34792408 0.12685093
0.20853183 -0.071300834 0.05274558 -0.08785685 0.037790883 0.05971878 0.102610566 -0.2267381
0.09243581 0.05494382 0.039160606 -0.2094302 0.17451862 -0.12144158 -0.23682821 -0.025682714
00000000: df75 49be 9e87 abbe a9cc a5be 05c7 de3d
00000010: d47d 8dbd 6387 0bbe d9e4 76bd b93e 393d
00000020: c600 213c bfb5 de3d 67f3 523e b3d3 c43c
00000030: 3dcd cebd 7eea 14be cdaa abbd 6e27 8cbd
00000040: 3c3b 683e 16bf 033d a944 bc3d e9d5 d73c
00000050: 9775 a7bd c851 bebe b58a 053e 8005 02bc
00000060: 1db0 7cbd 1f13 cb3d c7a1 053d f6af 77bd
00000070: ab92 07be d410 59bd 44df aabe 6e12 b53d
00000080: afd0 a23e 45b2 303e cd71 98be 625e 36be
00000090: 37f6 313e 9d3e 073e eb97 7ebe 9631 a63d
000000a0: a774 abbe ffa2 8cba 60bb 923c e534 df3c
000000b0: 8b60 00be 9b47 58be 0b0c b43c 67d1 663d
000000c0: cbc9 0cbe 214b 803d 2419 a0bd 42cb 64be
000000d0: f78d 103e 9fee 29be cf34 18be eb17 943e
000000e0: 079e 2f3e 4f3c 8abe d3ad 873e a2aa c43c
000000f0: d8eb 373e 77a4 f03e 5e45 9d3d dbf8 eabd
00000100: cc79 e9be d93c ecbd c149 583e ab9a 0abe
00000110: 41bd a43d 65bf 4abe a87e 80be b244 0b3d
00000120: 1407 493c c3df 073e 99d5 383e a4cb 1dbd
00000130: e56f c3be 930a 013d a825 633c c2d6 0d3d
00000140: d876 663e b827 e03d b23a 8bbe 756b 87bd
00000150: 4780 44bd a977 8cbd 7817 5d3d 0b57 61be
00000160: 110f ce3d d904 2f3c 58b2 14bd 7c00 d3be
00000170: 3699 813e 85c7 5abe 3a99 0bbe 6802 6bbe
00000180: 4632 1c3e 20e4 773e ed60 5b3c 758f b6bd
00000190: adf4 e5bd 8468 1a3e 3a28 80be 537d a7be
000001a0: 2a8a 133e 4cc8 27be e699 a1be 2a4f 0d3d
000001b0: d3f7 dd3d ba85 933e 8323 3abd 4190 983d
000001c0: 76c1 56be 271e 94be ee98 18be 53f4 813e
000001d0: 7257 aabd ca79 cb3d b06b 6b3c b0e8 9cbd
000001e0: 938e 41be bd9b 713e add0 f4be 4033 643c
000001f0: 8c94 a03c 5cc5 143e 4c92 19be 9103 fc3d
00000200: ef40 eebd d767 3bbe e09a 70bd 91e5 76be
00000210: 8705 e93c 87d4 9d3d 8744 51bd ece8 153e
00000220: 595b 1a3e 3680 48be 550a a53e 92e7 86bd
00000230: 0e69 a43e 4b85 4a3e 31cd 883d 7f4e ccbd
00000240: 1f03 dcbd 20f8 933e cf68 8c3e 88ac e0bd
00000250: 50a9 b63d d426 f2bd bfff b8bd 1490 31bd
00000260: e250 99be 28d9 c33c 8ed6 9abd c80a 4abd
00000270: 3bca 603d 7b8e b83e ec52 2abe 961c 3e3b
00000280: 6ece c4bd 5a28 5b3b 66f5 753e 660c 5dbd
00000290: 36cd cdbd 4d35 28be e741 303e 2d85 2ebd
000002a0: b8c2 a33d d790 e13e 9da7 87be 8ce5 3ebe
000002b0: 0eb9 69be bcec d8be 4828 9ebd 7c1b 8fbc
000002c0: dca3 92be da6d 72bd 3923 1b3d 43b6 70bc
000002d0: 11e1 823d 2cf7 17be fed6 39bd f556 463e
000002e0: 7223 dfbd 6f84 9f3b dd9d 4fbe 9ee0 503e
000002f0: 58b4 edbc 8c98 e8bd ce18 12be dbc4 9c3e
00000300: b77d 203c dae8 f2be 04ae 02be 1eda 7cbe
00000310: 611f 48bd e95f f3bd 5880 753d 09d9 ab3e
00000320: 8ce2 60be 97a1 c5bd 5212 a03e 45f8 99bd
00000330: 2841 6d3d dd03 2ebe 5b82 6abe e521 30bc
00000340: 7f0b b53c 7c6a b73d 929d 53be 8664 27bd
00000350: 24e6 01be ed03 a6bd 8001 df3d 3499 debd
00000360: a90d 8abe 3f6a 39be 8ab8 0e3e 0d72 d0bd
00000370: 9726 0ebd e95e 0ebc 9d07 8f3e b928 583e
00000380: 58f4 ebbc 9b4f c8be 5992 84be e6d2 ec3c
00000390: 92fc a7be d6ab 413e ec44 9bb9 e76e 95bd
000003a0: 2242 273e df3e 053e 996d de3d ad1b 173e
000003b0: be71 01be 635f 633e 1b23 b2be 36e5 013e
000003c0: 5e89 553e 2c06 92bd c00b 583d 4bee b3bd
000003d0: 9dca 1a3d ae9b 743d 7d25 d23d 082e 68be
000003e0: fc4e bd3d c50c 613d df66 203d df74 56be
000003f0: 02b5 323e 5db6 f8bd 1883 72be 8e64 d2bc

base.mlp.fc2.0.0.bias f4 [64]
0.012831367 0.061915133 0.007144429 -0.008551224 -0.0027938874 -0.0070955707 0.00075783534 0.018146055
0.0060360376 0.006359525 -0.0018187624 -0.0028744028 -0.008178887 -0.00065414794 -0.00252529 -0.010038684
-0.010979429 -0.009723797 -0.000774534 -0.024791572 -0.006785435 -0.010899635 6.22447e-05 -0.0021044046
0.004040292 0.0049223714 0.031807914 -0.004867431 0.0067668958 -0.0034944944 -0.002035327 -0.015929755
-0.0036827216 0.0056434576 0.0033238742 -0.018762806 0.046650484 -0.009054063 -0.00069932395 0.0005884529
0.02642627 0.011493331 -0.008877034 0.0077316198 -0.005480665 -0.004368872 -0.006423203 -0.0038232747
0.01615701 0.009909831 0.0033023576 -0.008802403 -0.016820472 0.0062354077 -0.007074479 -0.010202417
0.020710366 -0.0017472695 0.013406026 0.0015044229 0.0062721483 0.0009113086 -0.0020631535 -0.009372994
00000000: a73a 523c b99a 7d3d d01b ea3b 6f1a 0cbc
00000010: a719 37bb f681 e8bb 78a9 463a 09a7 943c
00000020: f4c9 c53b 9063 d03b 8a63 eeba 7a60 3cbb
00000030: bd00 06bc 207b 2bba 567f 25bb 4b79 24bc
00000040: 10e3 33bc 9050 1fbc 190a 4bba b217 cbbc
00000050: 5b58 debb 6294 32bc 5e89 8238 0dea 09bb
00000060: 6d64 843b d84b a13b 0449 023d f87e 9fbb
00000070: d6bc dd3b e303 65bb 1f63 05bb 1e7f 82bc
00000080: d159 71bb c1ec b83b 5bd5 593b 75b4 99bc
00000090: 9414 3f3d 7e57 14bc d652 37ba 6842 1a3a
000000a0: e87b d83c 864e 3c3c fb70 11bc 8759 fd3b
000000b0: 2697 b3bb c128 8fbb bb79 d2bb e88f 7abb
000000c0: b55b 843c d85c 223c 5e6c 583b f437 10bc
000000d0: 16cb 89bc 6452 cc3b 08d1 e7bb 0a28 27bc
000000e0: c9a8 a93c a304 e5ba f3a4 5b3c 0e30 c53a
000000f0: 9886 cd3b e3e4 6e3a f935 07bb 3091 19bc

base.mlp.fc2.0.2.weight f4 [64]
1.0658914 0.9972999 0.99913085 1.0063609 0.9961634 0.9953149 1.0140053 1.008261
1.0192587 0.9983325 0.99665594 0.996664 0.994261 1.0039703 0.9755797 0.99685377
0.9991688 1.0082787 1.0811046 1.0006948 1.0001998 0.9974813 0.99194056 1.0006653
1.0011619 0.990151 0.9983857 0.99686295 1.0004876 1.0045584 0.99463135 0.9909239
0.9995144 1.0250281 1.0115061 0.9984757 1.0022056 0.9890613 1.047852 1.0143965
1.0078857 0.99922866 1.0014039 0.996952 0.9994698 0.9917075 0.9991916 0.9946135
1.0034466 1.0051779 1.0146328 0.9994592 1.007727 1.0040078 1.0165111 0.99853003
1.0107269 1.0357636 1.0241685 0.9936372 0.9958592 0.9986649 1.0006156 0.9943211
00000000: 216f 883f 0c4f 7f3f 0ac7 7f3f 6fd0 803f
00000010: 9104 7f3f f5cc 7e3f edca 813f b20e 813f
00000020: 1277 823f b892 7f3f d824 7f3f 5f25 7f3f
00000030: e487 7e3f 1982 803f 97bf 793f cf31 7f3f
00000040: 87c9 7f3f 470f 813f a361 8a3f c416 803f
00000050: 8c06 803f ef5a 7f3f d1ef 7d3f cd15 803f
00000060: 1326 803f 897a 7d3f 3596 7f3f 6932 7f3f
00000070: fa0f 803f 5f95 803f 29a0 7e3f 30ad 7d3f
00000080: 2de0 7f3f 1f34 833f 0879 813f 1a9c 7f3f
00000090: 4648 803f 1f33 7d3f 0420 863f bfd7 813f
000000a0: 6602 813f 73cd 7f3f 012e 803f 3f38 7f3f
000000b0: 41dd 7f3f 8be0 7d3f 05cb 7f3f fe9e 7e3f
000000c0: f070 803f aba9 803f 7ddf 813f 8fdc 7f3f
000000d0: 33fd 803f 5483 803f 091d 823f aa9f 7f3f
000000e0: 805f 813f e793 843f f417 833f 025f 7e3f
000000f0: a1f0 7e3f 81a8 7f3f 2c14 803f d48b 7e3f

base.mlp.fc2.0.2.bias f4 [64]
0.0018219377 0.004626042 -0.00018547222 -0.0045471084 1.1959855e-07 -0.0028367268 -0.0030978576 0.0044116685
-0.0004984645 0.0008208144 0.0011931366 0.0026443747 0.00014942721 -0.00012096306 0.019312762 0.0037764874
-0.0031922704 0.0063352603 0.0017881839 -0.0005107367 8.650454e-05 0.0002985687 -0.00015411634 -0.0018197537
-0.0006582435 0.0076644984 0.0020388295 0.0014394048 -0.00033053846 -0.004991824 0.0016065711 0.011707641
0.0011745548 -0.00033387943 -0.0006079076 0.0013161273 -0.001004552 0.0015181206 2.2953198e-05 -0.0010116628
0.0010419639 0.0010645946 -0.0041539017 0.0029594803 0.00032035477 -0.0012952328 0.0015050411 -0.00050001114
0.004020655 -0.006541134 0.00069011596 -0.0008664805 -0.00813395 0.00026173852 0.008746987 0.001403655
0.0020338728 -0.0016272399 0.0015692621 -0.0005900233 0.0038388993 0.0012145205 -0.00101459 0.005396237
00000000: 16ce ee3a 0e96 973b 527b 42b9 e9ff 94bb
00000010: 006b 0034 61e8 39bb 6d05 4bbb c28f 903b
00000020: 63ab 02ba ec2b 573a 0563 9c3a 3f4d 2d3b
00000030: 90af 1c39 8cad fdb8 cc35 9e3c f27e 773b
00000040: 6935 51bb 0498 cf3b 7f61 ea3a f6e2 05ba
00000050: c569 b538 3689 9c39 4a9a 21b9 cd84 eeba
00000060: f98d 2cba 7926 fb3b e29d 053b 69aa bc3a
00000070: 1f4c adb9 7492 a3bb 9593 d23a 68d1 3f3c
00000080: 85f3 993a 8a0c afb9 fd5b 1fba e781 ac3a
00000090: 2cab 83ba adfb c63a 9e8b c037 c599 84ba
000000a0: 8292 883a de89 8b3a 741d 88bb d7f3 413b
000000b0: 4af5 a739 cdc4 a9ba cd44 c53a 2e13 03ba
000000c0: b3bf 833b 0257 d6bb e6e8 343a 8624 63ba
000000d0: 4244 05bc f339 8939 864f 0f3c d9fa b73a
000000e0: b94a 053b 1c49 d5ba b3af cd3a cbab 1aba
000000f0: 0b96 7b3b 8c30 9f3a fefb 84ba ebd2 b03b
